models/ppo_150000_lr=0.0003.pth (torch, 20682 bytes, 5 tensors)

layer1.weight f4 [64, 3]
0	0x3e9238eb	0.2855905
1	0x3eca8b4a	0.39559394
2	0x3f0f8155	0.5605672
3	0xbed2f674	-0.41203654
4	0x3eb153d2	0.34634262
5	0xbeb79805	-0.3585817
6	0x3e852b66	0.26009673
7	0x3e6f53fe	0.23371884
8	0x3f081f11	0.53172404
9	0x3db4b80a	0.08824165
10	0x3dc0be35	0.09411279
11	0x3e9064e5	0.28201976
12	0xbf0349aa	-0.5128428
13	0x3e2259fc	0.15854639
14	0x3f03978a	0.51403105
15	0xbc95ae13	-0.018271482
16	0x3e4f459e	0.202414
17	0xbdf9fef0	-0.122068286
18	0xbea87675	-0.32902876
19	0xbf03b3c1	-0.5144616
20	0x3f13cf3a	0.5773808
21	0xbd7f32bb	-0.06230424
22	0xbe5a7bb3	-0.2133625
23	0x3e8b5a7c	0.27217472
24	0xbf067cee	-0.5253438
25	0xbeadde97	-0.33958885
26	0x3dc16b60	0.09444308
27	0xbebe5899	-0.3717697
28	0x3f0128e2	0.5045301
29	0x3e7cef95	0.24700768
30	0xbcf479bc	-0.029843204
31	0x3eb7a809	0.35870388
32	0xbe99234f	-0.2990975
33	0x3f05b9af	0.52236456
34	0x3f03ea3f	0.51529306
35	0xbe780fb4	-0.2422474
36	0x3e610e4c	0.2197811
37	0xbe0b64de	-0.13612697
38	0xbe9a7bee	-0.30172676
39	0xbf051edd	-0.5200022
40	0x3d0bfa18	0.034174055
41	0x3eeb2d20	0.45932865
42	0xbeb606a8	-0.35551953
43	0x3e46f88d	0.19430752
44	0x3d616dfc	0.05503653
45	0xbe7c25ea	-0.24623838
46	0x3ee28b41	0.44246867
47	0xbeea5617	-0.45768806
48	0x3e072d52	0.13200882
49	0x3ea2ba09	0.3178256
50	0x3e073905	0.13205345
51	0x3ddd66dd	0.10810635
52	0xbf15da73	-0.5853645
53	0x3dc52db0	0.09627855
54	0xbe8eda2c	-0.27900827
55	0xbea927f0	-0.33038282
56	0x3ea11c1a	0.31466752
57	0x3edb13cc	0.4278854
58	0xbe928119	-0.2861412
59	0x3e2b7d05	0.1674691
60	0x3ea79dfc	0.3273772
61	0xbe1f1eff	-0.15539168
62	0x3eac64b0	0.33670568
63	0x3dd60f55	0.10452143
64	0xbe846237	-0.25856182
65	0x3e7ea818	0.2486881
66	0xbe9a5275	-0.30141035
67	0x3eaa3878	0.33246207
68	0xbedd8787	-0.43267462
69	0xbefb0657	-0.49028274
70	0xbed25176	-0.41077775
71	0xbeea8649	-0.45805576
72	0x3d9bac96	0.076012775
73	0x3f0245fc	0.5088804
74	0xbf004ee8	-0.501204
75	0x3d32a5ed	0.04361527
76	0x3ed04d61	0.40684035
77	0xbee1fb15	-0.44136873
78	0x3edb6dd3	0.42857227
79	0xbe26029f	-0.16211937
80	0x3f0c7d29	0.5487848
81	0xbcd1f55f	-0.025629697
82	0xbee316e6	-0.44353408
83	0xbf01d638	-0.50717497
84	0x3e298eb6	0.16558346
85	0xbcc4d38b	-0.024026653
86	0x3d5c3f21	0.053771142
87	0x3ea702a7	0.3261921
88	0xbe05d4cc	-0.13069457
89	0xbed0697d	-0.4070548
90	0xbd6ca7b5	-0.057777125
91	0xbd98a0b8	-0.0745253
92	0xbef6a1fc	-0.4817046
93	0x3eca58ae	0.39520782
94	0xbea9dba4	-0.33175385
95	0xbf00a666	-0.50253904
96	0xbe8a2c2d	-0.26986828
97	0xbf0052f1	-0.5012656
98	0x3c90d3c4	0.017679103
99	0xbe963cf0	-0.29343367
100	0xbf04d25f	-0.518835
101	0xbee89f93	-0.45434245
102	0x3e82dac7	0.2555754
103	0x3e6273b7	0.22114454
104	0x3e159609	0.14608015
105	0x3e758364	0.23975903
106	0xbe84d092	-0.25940377
107	0x3e83dee5	0.25755993
108	0x3e5ee092	0.21765354
109	0x3df3690b	0.1188527
110	0xbe9143f0	-0.28372145
111	0x3e27a476	0.1637133
112	0x3ec8d04e	0.39221424
113	0x3e99bc22	0.30026346
114	0xbe53bc5b	-0.2067732
115	0xbe47ca9e	-0.19510886
116	0x3f03e291	0.5151759
117	0xbe93d8e0	-0.288764
118	0xbea5dcae	-0.32394928
119	0xbefbf67e	-0.49211496
120	0x3ed7201a	0.4201668
121	0xbec17832	-0.37787014
122	0xbe97d51b	-0.29654774
123	0xbee91129	-0.45520905
124	0xbe5e4355	-0.21705373
125	0x3ed3b2fc	0.41347492
126	0x3ed95264	0.42445672
127	0xbddc66e3	-0.107618116
128	0x3eceb7be	0.4037456
129	0x3e752308	0.23939145
130	0xbea7a541	-0.32743266
131	0x3e29a546	0.16566953
132	0xbe9da121	-0.30786994
133	0x3f08922d	0.53348047
134	0xbe5d3d6b	-0.2160546
135	0xbd917c46	-0.071037814
136	0x3e8d2177	0.27564594
137	0x3dbf5c95	0.093438305
138	0x3da2b86c	0.07945332
139	0xbe4f5b72	-0.20249727
140	0xbf0ffabf	-0.56241983
141	0xbeda059f	-0.42582414
142	0x3ef1aff9	0.4720457
143	0xbe9c77bf	-0.3056011
144	0xbe5db78c	-0.21652049
145	0xbf05dc66	-0.52289426
146	0x3ecebc7d	0.4037818
147	0x3eca6b8d	0.3953518
148	0x3d37b118	0.044846624
149	0x3f0eca2d	0.55777246
150	0xbc126a4f	-0.008936479
151	0x3ee611f6	0.44935578
152	0x3e58947a	0.2115039
153	0xbf0d2352	-0.5513202
154	0x3ea51274	0.3224064
155	0xbe4b15b9	-0.19832505
156	0xbee0dff1	-0.43920854
157	0x3f11448e	0.5674523
158	0x3ece62e4	0.40309823
159	0x3ead9142	0.33899885
160	0xbe9ea3eb	-0.30984434
161	0xbe5405a1	-0.20705272
162	0x3dc5bf2a	0.09655602
163	0x3d39aaf4	0.04532905
164	0x3ea245f0	0.31693983
165	0x3e0c8d84	0.13725859
166	0xbeea0447	-0.45706388
167	0x3f06b807	0.52624553
168	0x3f10acd5	0.5651372
169	0x3f12c64e	0.5733384
170	0xbeb444a3	-0.35208616
171	0x3e9236ef	0.28557536
172	0xbe921459	-0.2853115
173	0xbe9aef57	-0.30260727
174	0x3f07a5e8	0.5298753
175	0x3e82389d	0.25433818
176	0xbead6fa0	-0.33874226
177	0x3ea6a1a4	0.32545197
178	0xbc0b76a6	-0.008512175
179	0x3ec91623	0.392747
180	0xbe87a921	-0.26496223
181	0x3efd4dc5	0.49473396
182	0xbe94fc66	-0.29098815
183	0x3f125629	0.5716272
184	0xbdc3230a	-0.095281675
185	0x3dab6e79	0.0837068
186	0xbe27eb52	-0.16398361
187	0x3f0d5fb1	0.5522414
188	0xbeba8e0f	-0.36436507
189	0xbc293453	-0.0103274165
190	0x3dd5ebf5	0.10445396
191	0x3dad4fb6	0.08462469

layer1.bias f4 [64]
0	0xbeea00b5	-0.45703664
1	0xbe9858db	-0.2975529
2	0xbf0e8263	-0.55667704
3	0x3f02c698	0.5108428
4	0x3df01d2c	0.11724314
5	0x3e5641d2	0.20923546
6	0x3f06eef9	0.52708393
7	0xbec8b101	-0.39197543
8	0xbe4fae88	-0.20281422
9	0x3eff1a4a	0.49824744
10	0xbde283ed	-0.11060319
11	0xbdf4eb5d	-0.119589545
12	0xbef9a2b1	-0.48756936
13	0xbebd88ab	-0.37018332
14	0x3e85f7e5	0.2616569
15	0xbe53183c	-0.20614713
16	0xbe8b4050	-0.27197504
17	0x3f14d02f	0.5813016
18	0x3e88c2bc	0.2671107
19	0x3ee04829	0.43805054
20	0x3e11cc21	0.14238025
21	0xbf01a81c	-0.5064714
22	0x3a41716b	0.00073792663
23	0x3f04c1bd	0.5185812
24	0x3f0c6d71	0.54854494
25	0x3ed17eb1	0.4091697
26	0xbf08b2cd	-0.5339783
27	0x3ecf282b	0.40460333
28	0x3e9b9bb4	0.3039223
29	0x3e5367bc	0.2064504
30	0x3ebe5789	0.3717616
31	0xbea443d3	-0.32082996
32	0xbedb10fa	-0.4278639
33	0x3da3b5b8	0.079936445
34	0x3f0eda21	0.5580159
35	0xbe06979b	-0.1314377
36	0xbebd0f8f	-0.36925933
37	0x3ef1764e	0.47160572
38	0xbed496b1	-0.41521218
39	0x3dd24465	0.102669515
40	0xbea6fd6f	-0.3261523
41	0xbf0f1fb1	-0.5590773
42	0xbe1cafc2	-0.15301421
43	0xbde64427	-0.11243468
44	0x3f039c31	0.51410204
45	0xbefc7b65	-0.49312893
46	0xbf07df7c	-0.53075385
47	0xbe3c0f7f	-0.18365286
48	0x3e955a6e	0.29170555
49	0x3e334fb2	0.1751087
50	0x3ecd1253	0.40053043
51	0x3d0f667c	0.035009846
52	0xbec062b1	-0.37575296
53	0x3f14cb64	0.5812285
54	0x3f0ff39b	0.5623109
55	0xbee56f4e	-0.4481148
56	0xbe661add	-0.22471185
57	0xbedbc86b	-0.42926344
58	0xbf10e1f3	-0.5659477
59	0xbe8d3579	-0.2757986
60	0xbeac9d9a	-0.3371399
61	0x3efb02de	0.49025625
62	0x3ef555cc	0.4791702
63	0x3e826804	0.25469983

layer2.weight f4 [64, 64]
0	0x3dac95c8	0.08427006
1	0xbd17e1a6	-0.03708043
2	0xbdc77a6d	-0.09740148
3	0xbdc1f785	-0.09471039
4	0xbd4c7e06	-0.049924873
5	0xbd70e82a	-0.05881516
6	0xbb4773df	-0.0030434055
7	0x3dbc7700	0.09202385
8	0x3bf46ea3	0.007459478
9	0x3986140a	0.00025573402
10	0xbc85dd9c	-0.016341023
11	0x3e0541ab	0.13013332
12	0x3df1c034	0.11804238
13	0x3d36fb6d	0.044673372
14	0x3c8789d1	0.016545208
15	0xbd98270b	-0.07429322
16	0x3ddba891	0.10725511
17	0x3d6c3453	0.057667088
18	0xbd353589	-0.04424051
19	0x3b5d1fc4	0.0033740858
20	0xbc072716	-0.008249065
21	0xbdc03bad	-0.09386382
22	0x3d3136a0	0.043264985
23	0xbd829115	-0.063753285
24	0xbc9868c1	-0.018604638
25	0xbdb2abf5	-0.087242045
26	0xbde8150f	-0.113321416
27	0x3dde7f1b	0.10864087
28	0x3cc1cf83	0.02365852
29	0x3dfa5e93	0.1222507
30	0xbd30e9bc	-0.043191656
31	0xbd8e2344	-0.0694032
32	0xbd7d7e3b	-0.06188796
33	0xbdae4076	-0.08508389
34	0xbd4e854a	-0.050420083
35	0x3d8ec21c	0.06970617
36	0x3ce1630b	0.027513048
37	0xbd118ec8	-0.035536557
38	0x3d65dae4	0.056116953
39	0xbca4612d	-0.020065868
40	0x3dd0313e	0.10165642
41	0x3df19916	0.11796777
42	0x3d81cf11	0.06338323
43	0x3db3a8b0	0.08772409
44	0xbda35260	-0.07974696
45	0xbd234490	-0.03986031
46	0xbc35954a	-0.011082957
47	0xbd3cb30f	-0.0460692
48	0x3d9fc189	0.07800586
49	0xbd60767a	-0.054800488
50	0x3cf60c5a	0.030035187
51	0xbdd9e39f	-0.106391184
52	0x3d3f24bc	0.046665892
53	0x3dd80b40	0.10549021
54	0x3c30de34	0.010795165
55	0xbd1d962d	-0.038473297
56	0xbd4f7474	-0.050648168
57	0x3db842ca	0.08997114
58	0x3e15dbfb	0.14634697
59	0x3daf2367	0.08551674
60	0x3d9c7212	0.07638945
61	0xbdf316ce	-0.11869584
62	0x3da2196a	0.079150036
63	0x3d20cc2f	0.039257225
64	0xbd660854	-0.056160286
65	0xbda7815a	-0.08178969
66	0xbdd7cc1a	-0.10536976
67	0x3cfaa0b0	0.0305942
68	0x3d839c7a	0.0642633
69	0x3dbb36d2	0.091413155
70	0xbcc45758	-0.02396743
71	0xbdf10956	-0.11769359
72	0x3decea2a	0.11568101
73	0xbd10272c	-0.035193607
74	0x3c4643d0	0.012101129
75	0x3db66eaa	0.08907826
76	0xbd02fde4	-0.03198041
77	0xbb8a13c0	-0.00421378
78	0xbd36b6c0	-0.044607878
79	0xbd8938f6	-0.067003176
80	0x3d97e266	0.07416229
81	0xbdec487a	-0.11537261
82	0xbca33598	-0.019923016
83	0x3dec62e8	0.11542302
84	0x3d4719d0	0.0486086
85	0xba5d8900	-0.00084508955
86	0x3d6b4b58	0.0574449
87	0xbdeac3ac	-0.11463103
88	0xbc9775a0	-0.018488705
89	0x3d8f8594	0.070079
90	0x3dce6d58	0.100794494
91	0xbd8b3da8	-0.06798869
92	0xbdea20bc	-0.11432025
93	0xbd34d950	-0.044152558
94	0xbdfd9752	-0.12382378
95	0xbdaf375a	-0.08555479
96	0xbd7fa8ac	-0.062416717
97	0x3d0281ac	0.031861946
98	0xbde43682	-0.11143209
99	0xbc790140	-0.015198052
100	0xbde078fa	-0.109605744
101	0x3ca26748	0.019824639
102	0xbda3eaf2	-0.08003797
103	0x3d81c9ea	0.0633734
104	0xbda2605a	-0.07928534
105	0x3b66a140	0.0035191327
106	0xbdd80812	-0.10548414
107	0xbd38e9e0	-0.045144916
108	0xbda31790	-0.079634786
109	0xbd2fe4ec	-0.042942926
110	0xbd6a8cd4	-0.05726321
111	0xbc8598d0	-0.016308218
112	0x3d387d50	0.045041382
113	0x3d8cd97c	0.06877419
114	0xbdbc4c0e	-0.09194194
115	0xbcfbbb68	-0.03072901
116	0x3d31cdfc	0.043409333
117	0x3cb26c18	0.021780059
118	0xbd581904	-0.05275823
119	0x3b0cbf80	0.0021476448
120	0xbd1a4d74	-0.03767152
121	0x3d239974	0.039941266
122	0xbdb23d34	-0.0870308
123	0x3dd090dc	0.1018388
124	0x3df31eb4	0.118710905
125	0xbdab7eac	-0.0837377
126	0x3d510674	0.051031545
127	0xbdd0f29c	-0.10202524
128	0xbd125e54	-0.03573449
129	0xbde66442	-0.112495914
130	0xbd8485fc	-0.06470868
131	0x3d89cd14	0.06728569
132	0x3d3208fc	0.0434656
133	0x3d9131e4	0.07089594
134	0x3d03af1c	0.03214942
135	0xbdf2dcf4	-0.1185855
136	0xbd883e50	-0.0665251
137	0xbd5349f0	-0.051584184
138	0x3b020140	0.001983717
139	0xbd4e1b0c	-0.050318763
140	0x3d57641c	0.052585706
141	0xbcbe45e0	-0.023226678
142	0x3df51004	0.11965945
143	0xba7fc400	-0.00097566843
144	0xbd034898	-0.032051653
145	0x3ca09d78	0.019606337
146	0xbdf1d05a	-0.11807318
147	0xbdfc9b26	-0.1233428
148	0x3dba990c	0.091112226
149	0xbc92abe0	-0.017904222
150	0xbda0185c	-0.07817146
151	0xbd345ba4	-0.044032708
152	0x3bd10c60	0.006379649
153	0xbd857f92	-0.06518473
154	0xbded0840	-0.11573839
155	0xbd110cec	-0.035412714
156	0x3db46698	0.08808631
157	0xbd9a7b9a	-0.075431064
158	0x3d6766f8	0.056494683
159	0x3db2e448	0.087349474
160	0x3dcba5a4	0.09943703
161	0x3dae4694	0.085095555
162	0xbc206c90	-0.009791508
163	0x3d95b476	0.07309811
164	0xbd8d9414	-0.06913009
165	0xbddf3bca	-0.10900076
166	0x3dd9e624	0.10639599
167	0xbd1f7f0c	-0.03893952
168	0x3d7bca50	0.061472237
169	0x3c263850	0.010145262
170	0x3d455728	0.04817882
171	0x3c0cb1b0	0.008587286
172	0xbd99b174	-0.075045496
173	0x3d179ab0	0.037012756
174	0xbd548c58	-0.051891655
175	0xbdbfe07e	-0.0936899
176	0x3d2ba110	0.041901648
177	0xbd8d08dc	-0.068864554
178	0xbdce5c6a	-0.1007622
179	0xbdd31f3e	-0.10308693
180	0xbdc3f08a	-0.095673636
181	0xbde1a01a	-0.11016865
182	0xbd061bf0	-0.032741487
183	0x3d9033ee	0.07041155
184	0x3afddb00	0.0019367635
185	0x3d6b957c	0.057515606
186	0xbd8c6ef2	-0.06857099
187	0x3ca11ce0	0.019667089
188	0xbd7ebe60	-0.062193274
189	0x3c9b6178	0.018967375
190	0xbca60d70	-0.02027008
191	0xbdee0686	-0.11622338
192	0xbdbb6b40	-0.09151316
193	0xbd0a85b7	-0.033818927
194	0xbd86e6cc	-0.0658699
195	0x3d1a42c9	0.037661348
196	0xbd519afb	-0.05117319
197	0xbd3d8d70	-0.046277463
198	0x3d4be720	0.049780965
199	0x3d37ecf7	0.04490372
200	0xbb023680	-0.001986891
201	0x3d0206d3	0.03174479
202	0xbde87485	-0.11350349
203	0x3ce9cb2e	0.028539266
204	0x3d821884	0.06352332
205	0x3c328262	0.0108953435
206	0xbdb418c3	-0.087937854
207	0xbd836d86	-0.06417374
208	0x3d61d3f2	0.055133767
209	0xbc8db631	-0.01729879
210	0x3beb5b73	0.0071825325
211	0xbd60741d	-0.054798234
212	0xbc0a2066	-0.008430576
213	0x3d0321bb	0.03201459
214	0x3c84756b	0.01616927
215	0x3d582f61	0.05277956
216	0xbdd66555	-0.10468546
217	0x3c556954	0.0130256
218	0xbd63757c	-0.055531964
219	0x3ddb2803	0.10700991
220	0x3dad76fc	0.0846996
221	0xbd841aa3	-0.06450393
222	0x3dea53ab	0.1144174
223	0x3d032c90	0.03202492
224	0xbdb0ef6c	-0.08639416
225	0xbd2aec2a	-0.04172913
226	0x3dd85d77	0.10564702
227	0x3d3044bb	0.043034296
228	0xbda87a3f	-0.082264416
229	0x3dc7a014	0.09747329
230	0x3dc59b12	0.09648718
231	0xbd8dd718	-0.069257915
232	0x3d9753c3	0.07389023
233	0xbdf391bd	-0.11893032
234	0xbde37c3f	-0.111076824
235	0x3d83d6ac	0.0643743
236	0xbd8bf38c	-0.06833562
237	0x3d6c686c	0.057716772
238	0xbc516c69	-0.012782195
239	0xbc6fed36	-0.014643958
240	0xbbd713a3	-0.00656362
241	0xbd488306	-0.04895308
242	0x3dfdc541	0.12391139
243	0x3da2d10e	0.0795003
244	0x3dbe037b	0.092780076
245	0x3c3f0d3b	0.011660869
246	0xbdd252b5	-0.10269681
247	0xbdf530d9	-0.119722076
248	0xbc9b2eff	-0.018943308
249	0xbbdf98bc	-0.0068236273
250	0xbb542f57	-0.003237685
251	0x3d3e11ed	0.046403814
252	0xbd546f61	-0.05186403
253	0xbd74d758	-0.05977568
254	0xbcab3cd0	-0.020903021
255	0x3d67f23c	0.056627497

layer2.bias f4 [64]
0	0x3d49bf26	0.04925456
1	0xbd9170e2	-0.07101609
2	0x3b1a6980	0.0023561418
3	0xbcdccc13	-0.026952779
4	0x3d5a917f	0.053361412
5	0x3d21640d	0.039402056
6	0xbbf95ed4	-0.0076101813
7	0xbd4a2ae8	-0.049357325
8	0x3de4e1ae	0.111758575
9	0xbd565448	-0.05232647
10	0xbdae4928	-0.08510047
11	0xbd94b53b	-0.072611295
12	0xbc6ee3b6	-0.014580658
13	0x3aa7024f	0.0012741777
14	0x3c84588c	0.016155504
15	0xbdc8740e	-0.09787761
16	0x3ce28499	0.027651118
17	0xbd85262c	-0.06501421
18	0xbd7ccbc8	-0.06171778
19	0xbd9df387	-0.07712465
20	0xbace75e2	-0.0015751685
21	0x3d2c1e67	0.04202118
22	0x3de4c22f	0.1116985
23	0x3d8822a2	0.06647231
24	0x3dc9c7fd	0.09852598
25	0x3dc25803	0.09489443
26	0x3d8f71bd	0.07004116
27	0xbd09cc46	-0.033642076
28	0x3d754a1a	0.059885122
29	0xbd66df24	-0.056365147
30	0xbdc77a84	-0.09740165
31	0x3d977678	0.07395643
32	0x3da1a51f	0.078928225
33	0x3d96d869	0.07365496
34	0x3d9fc63c	0.07801482
35	0xbd898d7c	-0.06716439
36	0xbca13b2f	-0.019681541
37	0xbd75ffa8	-0.060058266
38	0x3cfa7474	0.030573107
39	0xbd425d8c	-0.047452495
40	0xbdd2bf26	-0.10290365
41	0xbd3a2f8c	-0.0454555
42	0x3d8f9dc8	0.07012516
43	0xbde7ba63	-0.11314847
44	0x3d0540bb	0.032532435
45	0xbdf6dd09	-0.12053878
46	0xbce24408	-0.02762033
47	0x3d0fec71	0.035137597
48	0x3d5db3a1	0.054126386
49	0xbca126b2	-0.019671772
50	0xbcf50e3b	-0.029914012
51	0x3c092947	0.008371658
52	0xbc00287f	-0.007822155
53	0x3ba220d9	0.0049477634
54	0x3cb43564	0.021998115
55	0xbda8e06b	-0.08245929
56	0xbddedfbf	-0.1088252
57	0xbddd495e	-0.10805009
58	0xbddc85d7	-0.107677154
59	0x3c69aac3	0.014261904
60	0x3dcdf26f	0.10056006
61	0xbdfe7524	-0.124246866
62	0x3d4808c1	0.048836473
63	0xbc86fdb7	-0.016478403

layer3.weight f4 [1, 64]
0	0xbdcdf7a7	-0.100570016
1	0x3d32e210	0.04367262
2	0xbdb14fd4	-0.08657804
3	0x3cb3914d	0.02191987
4	0x3d1c10dd	0.03810202
5	0x3ce3ee46	0.027823579
6	0xbde5816e	-0.112063274
7	0x3cdffd64	0.027342506
8	0xbc049e5f	-0.008094399
9	0x3d3aa318	0.045565695
10	0x3d7c0c9f	0.061535474
11	0xbd3eee00	-0.046613693
12	0xbd984d53	-0.074366234
13	0x3de0ef8e	0.109831914
14	0xbc0d32c7	-0.008618063
15	0xbd7de3f6	-0.06198498
16	0xbdae68f4	-0.08516112
17	0xbcac510a	-0.021034736
18	0x3dc8df71	0.09808243
19	0x3dd50d7f	0.10402965
20	0xbd435561	-0.047688846
21	0x3de70c45	0.11281637
22	0xbd82ba65	-0.06383208
23	0x3c1d6f35	0.009609033
24	0xbd8ebb11	-0.06969274
25	0xbdd32525	-0.10309819
26	0xbdcf4eb6	-0.10122435
27	0x3d02cb25	0.031932015
28	0x3d425ec3	0.047453653
29	0xbdc02bc6	-0.09383349
30	0x3d93cc3d	0.0721669
31	0x3d7a9d3e	0.061185114
32	0xbd1901d9	-0.037355278
33	0xbdfc8e18	-0.1233179
34	0xbd1f45e5	-0.038885016
35	0x3cdbc178	0.026825652
36	0x3d6db1fd	0.05803107
37	0x3dda7d12	0.106683865
38	0x3c39fb8b	0.011351476
39	0x3d6f6798	0.058448404
40	0x3ce3eb90	0.027822286
41	0xbdfb808e	-0.12280379
42	0xbdbfadd7	-0.09359329
43	0x3dc975db	0.09836932
44	0x3ddfff14	0.10937324
45	0x3b69b2b2	0.003565949
46	0xbd82e14d	-0.06390629
47	0x3cba03ac	0.022706829
48	0xbd4bddf4	-0.049772218
49	0x3d8e1763	0.069380544
50	0x3de2f33c	0.110815495
51	0xbdf6a8c0	-0.12043905
52	0xbd47f8dc	-0.048821315
53	0xbbdc429a	-0.0067218067
54	0xbd3d6b1c	-0.046244726
55	0x3d81d2ff	0.063390724
56	0xbd871c4f	-0.06597196
57	0x3d0e44d0	0.034733593
58	0xbd93eb40	-0.07222605
59	0x3da303a6	0.0795968
60	0xbdbdfcf9	-0.09276766
61	0xbaa74680	-0.00127621
62	0xbd8466f0	-0.06464946
63	0xbe07368a	-0.13204399
