models/ppo_113000000_lr=0.003.pth (torch, 20766 bytes, 5 tensors)

layer1.weight f4 [64, 3]
000000 8a 39 12 be a8 2d 3e 3e c1 ae 24 bc 72 7b c6 3a
       -0.14279762 0.18572104 -0.01005143 0.0015142991
000010 6b aa 91 be 7d bc 2a bd 1f 1b 19 3e e8 80 88 3e
       -0.2845033 -0.041683663 0.14951752 0.26660848
000020 9b ed 99 3a 30 d2 95 bd 05 93 88 be f4 f5 94 3a
       0.0011743786 -0.07315481 -0.26674667 0.0011364804
000030 ae 05 0f bf f5 e1 1f 40 2c c4 cd bf a0 41 11 3e
       -0.5586804 2.4981663 -1.6075492 0.1418519
000040 9d c2 4e bd 89 f0 d4 bc 25 54 e3 3f dc 60 38 c0
       -0.050478566 -0.025993602 1.7760054 -2.8809118
000050 e0 f9 40 3f 54 99 4a 3e 0a ce 3a bf 06 fb 72 bd
       0.7538128 0.19785053 -0.7297064 -0.059321426
000060 d4 f2 26 be 8e 0a ec be 3d aa 5b 3a 7a b6 d9 bc
       -0.16303569 -0.46101803 0.00083795545 -0.02657627
000070 0f 6f a0 bd 0b e2 d4 bc 75 25 b2 bf 37 71 5c 3f
       -0.07833683 -0.025986692 -1.3917681 0.8611025
000080 84 91 cc 37 5a 17 d0 be cc b3 1d bf 9c 42 ff ba
       2.4386456e-05 -0.40642816 -0.61602473 -0.0019474807
000090 31 96 9a be d9 42 e8 3f e3 4f 8b bd 4d 4c 41 bf
       -0.30192712 1.81454 -0.068023466 -0.7550705
0000a0 39 3d 07 c0 45 92 97 3f 2b c1 07 40 70 c3 b4 3f
       -2.1131117 1.1841513 2.121165 1.4122143
0000b0 c9 6d a3 bf f9 c7 1e c0 fe 2c bc 3f e4 b0 b5 bc
       -1.2767879 -2.4809554 1.470123 -0.022179075
0000c0 e7 c7 e7 3d 87 28 a0 be 1f 45 9f 3b ae 70 55 3e
       0.11317425 -0.3128092 0.004860535 0.20843765
0000d0 66 ab 83 be 8f 97 60 bc eb 18 4b bd be 7d 06 be
       -0.25716704 -0.013708009 -0.04958431 -0.13133904
0000e0 15 77 e7 3c ed 32 56 3d 5e 45 08 bf 15 1b 22 3b
       0.028255025 0.05229466 -0.53230846 0.002473538
0000f0 28 49 e5 3e 67 d2 04 40 59 28 12 bf 3f b0 df 3d
       0.44782376 2.075342 -0.57092816 0.10922288
000100 27 3e e1 be e8 b6 a8 3c df fc 4f 3f 5c e0 b4 be
       -0.4399273 0.020595029 0.81245226 -0.35327423
000110 87 17 a9 bf 6a cd 06 be c5 76 0b 40 6c 29 16 bf
       -1.3210305 -0.13164297 2.179124 -0.58656955
000120 ba b6 11 40 89 04 8a 3f 0f b9 a3 bf 66 ce 1d be
       2.2767777 1.0782634 -1.279085 -0.15410766
000130 e4 1f 9f 3e 26 81 7b 3d 0a 1f a7 3e 1f 9e b9 3e
       0.31079018 0.061402462 0.32640868 0.3625345
000140 33 ad 4e bc 0d c6 07 c0 c3 21 a9 3e 57 48 83 3f
       -0.012614536 -2.121463 0.3303357 1.0256451
000150 31 58 d3 bf b7 18 d4 bf b0 ec 09 c0 ad f5 f1 3d
       -1.6511289 -1.6570042 -2.1550713 0.11814437
000160 89 ad 06 3f b4 2f 67 39 17 10 31 3e e2 2d e7 3f
       0.52608544 0.00022047648 0.17291294 1.8060877
000170 f8 d1 6a bf 94 7f 89 3e a0 f9 7a be 15 99 25 3d
       -0.91726637 0.26855147 -0.24509287 0.040429194
000180 1a a3 02 3f 14 85 40 3e 09 8b 4c bd f1 8e f2 3e
       0.51030123 0.18800765 -0.04993728 0.4737468
000190 77 17 d3 3d b7 e9 01 bb c6 b0 01 3f 5b da 5b be
       0.1030721 -0.0019823143 0.5066036 -0.21470015
0001a0 41 ae ca 3d 96 ab 20 3d 50 18 56 be cc fd 5e bc
       0.098965175 0.039226137 -0.20907712 -0.013610315
0001b0 84 b3 1e 3f c4 e9 2f 3d bf de c8 bc 2d 9d 88 3e
       0.6199267 0.042947546 -0.024520276 0.26682416
0001c0 51 26 25 bc 09 12 9b bd 17 42 51 3e a5 fa 5d be
       -0.010079936 -0.07571799 0.20435368 -0.21677645
0001d0 6f e3 5e be 2b 31 3c bf e9 60 65 bc df 40 36 c0
       -0.21766447 -0.73512524 -0.014000156 -2.8477094
0001e0 e7 74 a8 3e 74 4f 96 bd e6 ab 43 bd fa 83 2d 3f
       0.3290169 -0.07339373 -0.047771357 0.67779505
0001f0 7d 65 c1 3e 21 da 4c bb 59 76 42 3e d7 99 11 be
       0.37772742 -0.0031257945 0.18990459 -0.14218841
000200 8c 40 37 bc d8 92 66 bd d3 c3 c8 3e 5b b6 de bc
       -0.011184823 -0.056292385 0.39211902 -0.027186563
000210 55 96 7c 3f 43 aa 24 bf 23 d7 4d bf 8a 02 e2 be
       0.9866689 -0.643223 -0.804064 -0.44142562
000220 18 b6 36 bf 1e d2 27 bf b6 69 81 3e 37 6b 3f bf
       -0.71371603 -0.6555499 0.25275964 -0.7477297
000230 43 aa 52 bf f0 a8 34 be d6 ba 51 3e 9d 8c f2 bb
       -0.8229105 -0.1764257 0.20481429 -0.0074020163
000240 b9 de b5 bc 12 47 f6 3f 6d a7 fe be dc d3 1e be
       -0.022200929 1.9240439 -0.4973711 -0.15510505
000250 77 2d 00 40 6d 24 14 bf 71 76 60 3f d5 05 dd bf
       2.002775 -0.5786808 0.8768073 -1.7267405
000260 4b 1a a1 3f 97 6a 9a 3e 83 62 e9 3f 46 55 10 bf
       1.2586149 0.30159447 1.8233188 -0.56380117
000270 92 0a cd 3e 1b 4c d1 3f f4 57 35 bf 17 85 a4 3e
       0.40047127 1.635135 -0.7083733 0.3213279
000280 68 d6 aa be 56 b9 cd 3c b8 49 a6 3e ce e2 94 be
       -0.33366704 0.02511279 0.32478118 -0.29079288
000290 1d dd 13 bf fb 21 8f 3e bc 95 59 be 7d f9 ab bc
       -0.5775927 0.27955613 -0.21248525 -0.020992989
0002a0 ff 30 b7 3e c9 a6 d0 3d d1 ec cf bd b1 77 b0 3e
       0.3577957 0.10188062 -0.10152591 0.34466317
0002b0 7d da a3 3d 27 b3 ec 3a 90 c2 a1 be d7 d9 f1 be
       0.08000658 0.0018058763 -0.31593752 -0.4723651
0002c0 a7 53 59 3c 20 58 a7 c0 05 e8 57 be f5 8b 8f bd
       0.013264573 -5.2295074 -0.21084602 -0.070091166
0002d0 bc da cc 3e ae eb 29 3c b0 4a 21 bd df 08 33 3e
       0.4001063 0.010371132 -0.03937787 0.17483853
0002e0 67 ad 20 40 a7 8d d1 bf a2 ef 83 3e 44 2c 8d 3d
       2.5105836 -1.6371354 0.25768763 0.068932086
0002f0 27 c5 d9 bc 3c 98 f2 bd 93 73 89 bc 9c ee 81 bc
       -0.026583267 -0.11845443 -0.016778743 -0.015860848

layer1.bias f4 [64]
000000 92 97 aa be f9 fc dc be 0f 32 a1 be 8b 24 9b be
       -0.33318764 -0.43161753 -0.31483504 -0.30301318
000010 48 e8 33 40 f5 7d 9a be 2e 01 18 bf 54 64 55 bf
       2.8110523 -0.30174223 -0.593768 -0.83356214
000020 d1 3b 07 bf c5 0c ae be b0 e2 ef 3e 23 c3 4d bf
       -0.5282565 -0.33994117 0.46852636 -0.8037588
000030 b3 09 5f be 8a 7b 80 3d cb fc d3 3f b0 7d 10 3f
       -0.21781044 0.06273563 1.6561521 0.56441784
000040 0a c6 cf be 49 d2 d8 be e8 b3 dc be 59 3f 34 bf
       -0.4058078 -0.42347935 -0.43106008 -0.7040916
000050 34 93 a7 bd 1b 95 6d bf 29 1b 60 bf e2 34 33 3f
       -0.08182374 -0.9280564 -0.87541443 0.7000257
000060 85 98 96 3f 54 d5 60 bf fb 63 18 bf 27 3d 12 3f
       1.1765295 -0.8782551 -0.5952756 0.5712456
000070 0a 29 90 3d 37 c7 90 bf 13 96 03 3f 34 da 41 bf
       0.070390776 -1.1310796 0.5140087 -0.75723577
000080 f1 99 49 bf f8 99 3a bf b8 e7 9a bf 72 8b c6 be
       -0.7875052 -0.7289119 -1.2101965 -0.38778263
000090 91 c0 5e bf 87 0b 41 bf a4 4d 65 bf 90 5a af bf
       -0.87012583 -0.75408214 -0.89571595 -1.3699512
0000a0 02 c2 27 bf 53 3a 5d bf 3a 21 a5 be dd bd 2d bf
       -0.6553041 -0.8641712 -0.32251912 -0.67867833
0000b0 95 97 94 bf 9b 9b 84 bf f6 d0 79 bf 20 31 ac be
       -1.1608759 -1.0359987 -0.97584474 -0.3363123
0000c0 7c 94 6b 3e d5 39 1f 3f 6c 72 9f be 0a 46 aa 3c
       0.23005861 0.6219762 -0.31141984 0.02078535
0000d0 a8 58 e9 bd ed 8d 32 bf 4b b1 74 bf a1 98 01 bf
       -0.11393863 -0.6974781 -0.9558303 -0.5062352
0000e0 99 55 35 bf 31 42 d1 be 97 25 35 bf fa 21 b7 3e
       -0.70833737 -0.40870813 -0.7076048 0.3576811
0000f0 57 ff 21 bf b1 38 1f 40 42 7e d6 be 2d 9e f1 be
       -0.6328024 2.4878352 -0.41893202 -0.4719099

layer2.weight f4 [64, 64]
000000 2b 46 c2 3d 4f 80 4d 3d 94 78 63 bb 6c 5a d9 bd
       0.0948604 0.050171193 -0.0034709321 -0.1061295
000010 03 08 d0 bd e0 10 e8 bd 42 71 4a bd 07 f3 8f bd
       -0.10157778 -0.11331344 -0.049424417 -0.07028776
000020 76 96 87 bd b3 ba d7 3c 2b 65 d6 bd 8e bd 48 bd
       -0.06620495 0.026334142 -0.10468515 -0.0490089
000030 cd f0 9b bd bc 8b 04 3d fe 42 36 be aa 37 91 3d
       -0.076142885 0.032359824 -0.17798993 0.07090695
000040 9c d1 9d 3d 3c 0b 8d bd 5b b8 b6 bd ad 06 65 bd
       0.077059954 -0.068869084 -0.08921882 -0.05591457
000050 d8 41 63 3d 09 e6 9f 3d 8f 3e b1 bd 89 eb 30 be
       0.055482715 0.078075476 -0.0865451 -0.1727735
000060 50 c7 41 bc 44 fb 37 be 57 0f 09 3d 90 08 8c 3c
       -0.011827305 -0.17966944 0.033461895 0.017093927
000070 50 b0 eb bc 21 81 f1 bd 1a 10 2c 3c f2 73 b2 bd
       -0.028770596 -0.117922075 0.010501886 -0.08713521
000080 9a e0 ef bd 04 df 86 3d 6f 29 b2 3c a8 98 8f 3c
       -0.11712761 0.065855056 0.021748273 0.017528847
000090 e9 64 b2 bd eb e5 06 be ef 65 b4 bd 53 d6 e3 bc
       -0.08710653 -0.13173644 -0.08808505 -0.027812159
0000a0 10 61 c5 bc d1 be 91 3b f9 79 77 bd 6e 86 72 3d
       -0.024094135 0.004447796 -0.060419057 0.059210233
0000b0 f2 90 98 bc 32 28 55 bd 68 84 74 3a 74 89 0c 3b
       -0.018623803 -0.052040286 0.00093275914 0.0021444233
0000c0 9c d4 c5 ba bc 25 9b bd 7c 99 35 be c6 a5 3e bd
       -0.001509327 -0.07575557 -0.17734331 -0.046544813
0000d0 d0 88 de bd dc 59 89 bd de bd 27 be 79 41 25 be
       -0.10865939 -0.067065924 -0.16381022 -0.16138257
0000e0 0e 8d 90 bc f5 55 8a 3d 03 20 c9 bd f7 5c 08 be
       -0.017645385 0.06754676 -0.09820559 -0.13316713
0000f0 a1 9a 9a bc 93 0c 72 bd 54 7c 1c 3c 8a ad fe bc
       -0.018872561 -0.059094023 0.0095511265 -0.03108861
000100 0e 24 ad bd 46 04 aa bf 6f 65 12 3e c2 7b 1e bd
       -0.084541425 -1.3282554 0.14296506 -0.038692243
000110 3a 1a b5 c0 54 b3 43 be 9c bd 05 c0 52 cc 35 bf
       -5.6594515 -0.19111377 -2.0896978 -0.71014893
000120 6f 3d 19 bf 58 73 5a 3d 6b ec 4b bf ce 84 ff be
       -0.59859365 0.053332657 -0.7965762 -0.4990601
000130 b4 c4 02 3f 1a b3 d9 bf b5 17 a3 bf 07 fe 5b 3f
       0.51081395 -1.7007782 -1.274161 0.8593449
000140 fa ac ad 3d 39 0a c5 be 59 d5 d7 3d 0c 1a ad 3e
       0.08480258 -0.38484362 0.1053874 0.33808935
000150 0c 59 77 3f ca c6 6c be 6a f0 76 bd cd b0 5d 3f
       0.9662025 -0.23122707 -0.06028787 0.865979
000160 88 dd 87 bf 15 6a dd 3d 48 ba 05 bf d9 2d da bf
       -1.0614481 0.10811249 -0.5223737 -1.7045242
000170 0d d8 b1 bf 94 ae 1f bf 4d 2b 19 3f 33 05 05 3d
       -1.3894058 -0.6237576 0.59831697 0.03247566
000180 af ea 1c be 98 ba cd be 37 7c 6e bd f8 35 19 bd
       -0.153239 -0.40181422 -0.05822393 -0.037404984
000190 f7 c0 30 be 26 a1 8b bc 31 ab cb bd d7 ae 4b c0
       -0.1726111 -0.017044615 -0.099447615 -3.1825464
0001a0 2a 78 95 be 6e 2d 91 b8 c2 6f c3 3d 10 e2 db ba
       -0.2919324 -6.922601e-05 0.095428005 -0.0016775746
0001b0 d7 57 bb 3c 31 e2 35 bf 0b cf 95 3e 50 45 78 bd
       0.022869034 -0.71048266 0.29259524 -0.060612977
0001c0 36 51 0c 3f 11 cb 73 3f 61 b7 39 c0 3d 9b a7 3e
       0.5481142 0.9523173 -2.9018176 0.32735625
0001d0 7d 9a c2 3e f9 09 00 bd 57 60 8c 3f 07 43 2e bd
       0.3800849 -0.03125951 1.09669 -0.04254439
0001e0 dd b4 a7 3e b4 7b 9e 3d b9 98 4c 3e 92 2e c7 be
       0.32755175 0.07738438 0.19980134 -0.38902718
0001f0 bb d3 7d be 85 8c 5f c0 1b f3 8e be 18 e3 f8 bb
       -0.247878 -3.4929516 -0.2791985 -0.007595431
000200 cf a8 84 bd fc 08 22 bb ce f8 17 bc f8 93 20 3b
       -0.0647751 -0.0024724593 -0.009275628 0.0024502259
000210 8a 0d 7a bc 18 3f e5 bc d1 53 10 bc f9 c1 e0 bd
       -0.015262017 -0.027984187 -0.008809046 -0.10974497
000220 7d ff b7 3d f0 51 fa bd e2 c9 9e be 87 7c 88 3d
       0.089842774 -0.122226596 -0.310134 0.06664377
000230 b0 e4 07 be 55 a4 60 bd 0e 4d 15 be 99 4c 8c be
       -0.13270831 -0.05484422 -0.14580175 -0.2740219
000240 b7 a8 25 3d 0d 6e 0c 3d 3b a4 6b bd 91 22 20 3d
       0.040444102 0.03428464 -0.05752967 0.039095465
000250 3f 93 31 be 7d d3 0e be a6 17 00 bd 7e a1 20 be
       -0.17341326 -0.13947864 -0.031272553 -0.15686604
000260 c4 7e 4b 3d 2c 41 2a be a7 3f 66 bc 57 44 03 be
       0.04968144 -0.16626424 -0.014053262 -0.12819038
000270 c4 b7 b0 3c a7 0a 8f bc 67 79 48 be 80 d3 a7 3d
       0.021572001 -0.017461134 -0.19577561 0.08194637
000280 cd fc 95 bd 52 42 b7 bd 61 cd 99 bc d8 7d b3 bc
       -0.073236085 -0.089481965 -0.01877469 -0.021910593
000290 e1 07 7f bd 6f 91 1a be e0 e2 aa bd 26 0d 89 bd
       -0.062263373 -0.15094541 -0.08344054 -0.06691961
0002a0 34 80 2f be f9 69 0e be fb 3a 27 bd f1 c1 b9 bd
       -0.1713875 -0.13907613 -0.040827733 -0.090701945
0002b0 31 93 a7 bd 6e be 71 bd e9 83 e4 3c 6f d2 7d 3c
       -0.081823714 -0.0590195 0.02789493 0.015492066
0002c0 87 47 1c be c1 ca 0d be bd dd d5 3c 57 ec 25 be
       -0.1526166 -0.13846876 0.02610671 -0.16203438
0002d0 45 d5 6d be 67 fb 60 3d f2 43 35 bd 7e c5 63 3d
       -0.23225887 0.054927256 -0.04425425 0.055608265
0002e0 69 f1 99 bc a5 7b aa 3d 49 27 1f bd ce 50 12 be
       -0.018791871 0.083243646 -0.038855825 -0.14288637
0002f0 a0 28 b6 bd 9d ad 01 bc 5c 2a 17 bc a4 ea 6e bd
       -0.08894467 -0.007914928 -0.009226408 -0.05832924
000300 31 20 35 ba 6c 46 8b bd 82 a9 38 3d d0 72 c1 bc
       -0.0006909399 -0.06800541 0.04508353 -0.023614317
000310 84 85 4d 3d 61 58 fa be ad 17 ad be 7a ad d5 be
       0.05017616 -0.48895553 -0.33807126 -0.41733915
000320 45 3a 82 3c 80 c9 3e 3b 1e 04 8b bd 1a 54 34 bd
       0.015896926 0.0029111803 -0.06787895 -0.044025518
000330 f0 d2 4d bd 42 97 ad be e7 b8 c8 3b 82 2c e2 bc
       -0.050249994 -0.33904463 0.0061255577 -0.027609114
000340 b0 38 61 bc 0f 67 0e bf 32 c6 0e 3e 59 84 cf bd
       -0.0137464255 -0.55626005 0.13942793 -0.10132665
000350 e2 32 06 be 63 50 ff be a3 a1 a1 3d fe e4 2d be
       -0.13105348 -0.49866018 0.07892158 -0.16981885
000360 06 de 3e 3d d4 4b a8 bc 34 a0 07 be 63 0b a7 ba
       0.046598457 -0.02054397 -0.13244706 -0.0012744482
000370 2d 35 f5 bd e0 3e 56 be 77 50 e3 bd 2c 1c bd bd
       -0.11973033 -0.20922422 -0.11099332 -0.09233889
000380 1e fb a5 3d 94 02 f2 be 1b 06 0b be 22 85 e1 3d
       0.081045374 -0.47267592 -0.13576548 0.11011721
000390 2b 70 08 be a9 8f 83 bd 4a a8 e0 be 12 0c 91 bd
       -0.13324039 -0.064238854 -0.43878394 -0.0708238
0003a0 b8 14 a8 3d 41 9c 88 be 7c 47 b7 be 9e a9 45 3e
       0.08207077 -0.26681712 -0.35796726 0.19302985
0003b0 a9 66 8a be 05 98 f8 bd 62 06 6e be 1c 14 07 be
       -0.27031448 -0.121383704 -0.23244622 -0.13191265
0003c0 f9 f6 65 be af 7f 5a be ae 77 1e be 19 d9 d7 bd
       -0.22457494 -0.2133777 -0.15475342 -0.10539455
0003d0 1b e8 77 3d 3f 63 d7 3d fe 45 93 be 28 90 c1 bd
       0.060524087 0.105169766 -0.28764337 -0.09451324
0003e0 eb a9 8d be 0c 0b 15 be b7 1b c8 bc 8d 9e 47 3c
       -0.276687 -0.14554995 -0.024427278 0.012183798
0003f0 04 10 4e bd d5 97 b1 be 7b 3e 1b be 51 90 00 be
       -0.050308242 -0.3468615 -0.15160553 -0.12555052

layer2.bias f4 [64]
000000 f9 12 f1 bd f5 79 d4 3d 4b 93 a5 be 93 68 ae bd
       -0.11771197 0.10374824 -0.32338938 -0.0851604
000010 65 ef e3 bd 6a a6 0c be 33 93 84 be fe 77 49 be
       -0.11129645 -0.13735357 -0.25893554 -0.1967468
000020 68 82 db be c9 8a aa bd 35 f5 43 3d 53 af 1f be
       -0.4287293 -0.083272524 0.04784127 -0.15594225
000030 74 3b cf bd 03 c0 04 be d0 95 85 be e1 00 4d bd
       -0.10118762 -0.12963872 -0.2609086 -0.050049666
000040 59 e9 4d be c7 5e 4f be ca aa 27 be dc 8c e4 bd
       -0.20108546 -0.20250998 -0.16373745 -0.11159679
000050 0b 38 48 be 16 a2 97 be 05 53 5a be e1 4e b6 be
       -0.19552629 -0.2961585 -0.21320732 -0.35607055
000060 c6 e4 f2 bb 35 f9 86 be 4a 2e a6 3f 63 9a 93 be
       -0.007412526 -0.26362005 1.2982876 -0.28828725
000070 97 9d 0c be 70 be cb ba f1 80 75 be b9 37 0b be
       -0.13731991 -0.0015544426 -0.23974968 -0.13595475
000080 79 c3 f5 be 43 da 59 be 6c c3 49 bd c0 86 03 be
       -0.48000696 -0.21274666 -0.049258634 -0.12844372
000090 fa 02 2e be 20 b0 fd bd 27 b1 3c be f6 6c 7d bd
       -0.16993323 -0.12387109 -0.18426953 -0.06187149
0000a0 ef af 03 bf eb 68 4d be e2 dc 5a be 93 eb c3 bd
       -0.5144033 -0.20059554 -0.21373323 -0.095664166
0000b0 08 bf cc bc 28 f8 1e bd a2 25 62 be 6e a7 3a 3f
       -0.024993435 -0.03881088 -0.22084668 0.7291173
0000c0 58 a0 a5 be 3b c9 24 bb 3c 4b 50 be cb 8c ca be
       -0.32348895 -0.0025144357 -0.203412 -0.39560542
0000d0 cd 34 f6 be 5e 61 59 be 95 c8 9b be 54 0a bd bd
       -0.4808716 -0.21228549 -0.3042647 -0.092304856
0000e0 5f 43 83 be c7 39 4f be ee 34 80 be e1 28 d2 3c
       -0.25637338 -0.20236884 -0.25040382 0.025654258
0000f0 a5 d6 b6 be 11 91 4e be cc 67 3e be 94 c5 dc 3c
       -0.35710636 -0.20172526 -0.18594283 0.026949681

layer3.weight f4 [1, 64]
000000 2e 87 aa 3d c6 9f a0 3f 8c 9e 5d bc 21 0f 8f 3b
       0.08326565 1.2548759 -0.01352657 0.004365817
000010 66 af 81 3e 53 9c 2d bd 78 e7 df 3b 3e 10 18 bb
       0.2532913 -0.04238541 0.006833013 -0.002320304
000020 33 64 ba 3d 67 56 bc 3b 4e 62 d5 bd 75 3f 4b bb
       0.09101143 0.0057476046 -0.10419141 -0.0031013165
000030 a2 6c 16 3d 0a 8d 58 be 98 61 50 3c b7 bd 5c be
       0.036724694 -0.21147552 0.012718581 -0.21556745
000040 14 03 32 bc 5f b7 a9 bd 6f d0 cd 3d 06 b4 15 3c
       -0.010864992 -0.082869284 0.10049521 0.009137159
000050 66 2c 2e bc b6 70 a1 3d e8 7f 82 bd c6 62 ac 3d
       -0.010630703 0.07882826 -0.063720524 0.08417277
000060 5f f7 1d bc ac 57 1f bd 4c 05 d7 3e 29 b2 06 be
       -0.009641497 -0.03890197 0.4199623 -0.131539
000070 dd 72 29 3c 9f 2e 12 be 2c 61 b9 3c 3f c8 19 bc
       0.010342327 -0.14275597 0.022629343 -0.009386121
000080 72 58 68 3d 7d a1 48 3d 11 a5 dc 3b 95 c5 75 bc
       0.056724973 0.048982132 0.0067335446 -0.0150007205
000090 b8 e4 b3 bd 8d 0c c1 3d 33 8f ad bd 5a 60 10 3e
       -0.08783859 0.09426222 -0.08474579 0.14099255
0000a0 d8 b0 08 be a5 0b 81 bd 75 b5 7b 3d 68 19 27 bd
       -0.1334871 -0.06301049 0.061452348 -0.040795714
0000b0 39 4f f2 bb a9 39 74 3a 09 02 12 3c 90 fa 1c 40
       -0.007394698 0.00093164534 0.008911618 2.4527931
0000c0 5e fc 4f 3d 51 eb ca 3c 48 06 94 3c ca 97 0e bd
       0.050777785 0.02477041 0.018069401 -0.034812726
0000d0 3a e0 7d 3d c9 4b e9 3d f6 1f 89 3d d1 83 a0 3d
       0.061981417 0.11391408 0.06695549 0.07837642
0000e0 1c 4d c1 3c 19 a7 e0 bd 53 ce a0 bd 34 5b 5b 3e
       0.023596339 -0.10969371 -0.07851853 0.2142151
0000f0 d2 1d 67 3c 8e a0 9d 3d 67 97 26 3c 79 32 c1 3d
       0.014106231 0.07696639 0.010167933 0.09433455
