models/ppo_750000_lr=0.0003.pth (torch, 20682 bytes, 5 tensors)

layer1.weight f4 [64, 3]
00000000: 408f a13e 0629 b83e 6dbe 0d3f d82b c0be
00000010: 04b6 a83e 349e b6be 9f3c 763e cd20 943e
00000020: 87a5 083f 04b9 963d 5b25 0a3e c96c 923e
00000030: aa23 05bf b912 543e 2ec1 033f 2e78 d6bc
00000040: 7002 4f3e 46ca eabd bb68 b6be 0848 f7be
00000050: ad55 153f 8499 2abd 81a9 83be b69b 8a3e
00000060: 893a ffbe 42d6 babe 858f ab3d 9c3d c9be
00000070: 941d 0f3f 2be5 793e c77f acbd 3c36 bb3e
00000080: 470f 99be 8d98 0e3f 76b9 013f a1aa 6ebe
00000090: e752 923e 3244 16be f96a 90be 0ced fcbe
000000a0: e06f a8bb a349 e83e a873 cbbe 952f 7c3e
000000b0: d0fb 2e3d 6444 68be fe09 d83e 827c e9be
000000c0: 0efd 173e e060 a83e cb3d 083e 0b8d fb3d
000000d0: 2166 1abf 8048 cb3d c63a 83be 0045 c0be
000000e0: 340b 963e a9e7 dc3e b95c 92be ab70 313e
000000f0: 061f af3e 664c 2bbe d0bc aa3e 4b94 b73d
00000100: 4700 72be 8a4b 7c3e 5e09 b1be 09b9 b73e
00000110: 96ba d4be 0cf7 f9be 40f0 cbbe e0a2 e7be
00000120: ad98 cf3d da85 f73e d6c7 fbbe f2c1 fc3c
00000130: fae1 d13e 033e e8be a873 de3e 349b 56be
00000140: df1f 0a3f 0c51 f7bc b0b8 d8be b884 fdbe
00000150: fa98 383e d57e f539 83a1 413d a23e c83e
00000160: 1c97 25be 2a2f c9be f0d6 9abd 2bf5 6cbd
00000170: f998 f2be 08ee be3e 4664 a2be 915c fdbe
00000180: 149f 92be 45f0 06bf 514d 283d 6021 87be
00000190: 8a1e 0dbf 4410 ebbe f211 953e 380e 703e
000001a0: 9c8d 0e3e 3ddc 653e 8028 79be 0c76 803e
000001b0: 91fd 3f3e 6b8a 003e e894 90be cb7f 1d3e
000001c0: 2d1e dd3e babc 963e 45a4 3dbe 7cc9 60be
000001d0: b257 f73e fcc5 96be 24c9 92be 4879 f1be
000001e0: 740e d33e 3bdd bcbe 37d0 91be 4841 edbe
000001f0: 137b 25be be05 c83e 4df6 e63e 288d 23be
00000200: 720f cb3e bde4 773e a75f acbe bbfd 1a3e
00000210: 0cce babe ad6e fc3e 6d79 63be df91 aabd
00000220: 4389 913e dc60 b93d 428a 2e3d 94dd 4dbe
00000230: a9e9 0abf 1c9a d6be f8b9 e43e b775 9bbe
00000240: 6321 62be 9135 fcbe 6975 d03e c9fc c23e
00000250: 7191 863d 83f9 0c3f d162 843c 928f d33e
00000260: 89eb 573e 1fdb 1bbf bc34 a73e 1b12 4dbe
00000270: f242 e7be 130e 1f3f fa86 ce3e c139 a73e
00000280: 7045 91be d825 40be af80 a73d e21c b03d
00000290: b022 a13e 5063 f83d 0a91 d5be 13dd 053f
000002a0: 174f 193f 5313 103f bb9d b2be 6ef7 963e
000002b0: f6db 88be b83b 89be a044 033f c0b6 833e
000002c0: 123d a8be 20b4 b13e 3fc2 33bd d3c9 c53e
000002d0: d5c9 81be 9265 f33e 2f2e 8ebe 0b16 113f
000002e0: 11e8 99bd 2c33 963d 9f35 33be 82c2 123f
000002f0: bfdf afbe b1d6 f43c 4cb4 6a3d 32b8 a23d
0.31554604 0.35968798 0.5536869 -0.3753345 0.32951367 -0.35667574 0.24046563 0.28931275
0.53377575 0.07359508 0.13490812 0.2859862 -0.52007544 0.20710267 0.51466644 -0.026180353
0.20215774 -0.11464362 -0.35626778 -0.48297143 0.58333856 -0.04165031 -0.2571526 0.27071923
-0.49849346 -0.3649159 0.083769836 -0.39304817 0.5590451 0.24403827 -0.08422809 0.36564815
-0.29894468 0.55701524 0.50673616 -0.23307277 0.28578874 -0.14674452 -0.28206614 -0.49399602
-0.0051402897 0.4536868 -0.39736676 0.24627526 0.042720616 -0.22682339 0.42195123 -0.45602804
0.14842626 0.3288641 0.13304822 0.12282761 -0.60312086 0.09925938 -0.25630778 -0.37552643
0.29305422 0.43145493 -0.28586367 0.17328136 0.34203357 -0.16728362 0.33347178 0.089638315
-0.23632918 0.24638191 -0.3457746 0.35883358 -0.41548604 -0.48821294 -0.39831734 -0.4524145
0.101365425 0.48344308 -0.491759 0.0308542 0.4099272 -0.4535981 0.43447614 -0.20957643
0.5395488 -0.030190013 -0.42328405 -0.4951532 0.18027106 0.0004682454 0.04727317 0.39110285
-0.16170925 -0.39293796 -0.07560527 -0.057850998 -0.47382334 0.37290978 -0.31717128 -0.49484685
-0.28636992 -0.5271037 0.04108936 -0.2639265 -0.55124724 -0.45910847 0.29115254 0.23442924
0.13921207 0.22447295 -0.24331856 0.25090063 0.18749072 0.12552802 -0.28238606 0.1538078
0.43187085 0.29440862 -0.18519695 -0.2195186 0.48309094 -0.29447925 -0.28669083 -0.47162843
0.41221964 -0.36887535 -0.28479168 -0.46338868 -0.1616023 0.3906688 0.45109788 -0.15971816
0.3966022 0.2420835 -0.33666727 0.15135853 -0.36485326 0.4930319 -0.22214289 -0.08328604
0.28425035 0.090516776 0.04261232 -0.20104057 -0.5426279 -0.4191445 0.44673133 -0.30363247
-0.22083049 -0.49259618 0.40714577 0.38083485 0.065707095 0.55068225 0.0161604 0.41320473
0.21085943 -0.6088123 0.3265742 -0.20026438 -0.45168263 0.6213085 0.40337354 0.3266125
-0.2837329 -0.18764436 0.08178841 0.08599259 0.31471777 0.12128317 -0.4171222 0.5229046
0.59886307 0.56279486 -0.34885964 0.2948565 -0.26730317 -0.26803374 0.5127659 0.25725365
-0.32859093 0.34707737 -0.04388642 0.38630542 -0.25349298 0.4753843 -0.2776961 0.5667426
-0.07514966 0.07333979 -0.17500924 0.57328045 -0.34350392 0.02988753 0.05730085 0.07945289

layer1.bias f4 [64]
00000000: ed0f ecbe f457 99be ca61 0bbf f3f3 053f
00000010: 1316 f13d 5be8 5e3e 424f 0d3f 545d c9be
00000020: 2a80 5dbe 885d 043f 3c30 c1bd fef1 03be
00000030: ea4c fcbe 7cb6 c2be 1415 893e 461a 50be
00000040: 53dc 84be 7033 0f3f b548 813e e9c0 de3e
00000050: 98b6 093e d436 02bf 367b bdbc d7fd 003f
00000060: 658a 0d3f 21ab ce3e b067 0cbf 43a1 be3e
00000070: b0f7 9f3e 62ba 3d3e 9e91 b83e c686 afbe
00000080: 1ddd cbbe ba46 bc3d 5ea4 113f 8956 10be
00000090: 51f1 c0be d197 ef3e f54e eabe 796e 8d3d
000000a0: 9cd5 acbe c1cb 11bf 110f 27be e78c 03be
000000b0: 27f5 073f 3dca febe d522 0dbf b6f8 43be
000000c0: d8ca 9c3e d92b 2e3e e26d bd3e e9b2 343d
000000d0: 8b86 c0be f9ad 0f3f 0b9f 0f3f bc00 e7be
000000e0: 329b 64be 385f f0be 4a85 14bf 360b 8fbe
000000f0: 1ae8 b3be bfcf 063f 7ac8 f03e 9c55 793e
-0.461059 -0.29949915 -0.5444609 0.5232536 0.117717884 0.21768324 0.5519906 -0.39329016
-0.21630922 0.5170522 -0.09433028 -0.12885281 -0.4927743 -0.3802985 0.26773894 -0.20322523
-0.25949344 0.5593786 0.25250784 0.43506554 0.1344856 -0.5086491 -0.02313004 0.5038733
0.552893 0.40364936 -0.54845715 0.37232408 0.31243658 0.1852813 0.36048597 -0.3428251
-0.39817134 0.091931775 0.5689143 -0.1409551 -0.3768411 0.46795514 -0.45763364 0.069058366
-0.3375672 -0.5695153 -0.16314341 -0.12846719 0.5310845 -0.4976367 -0.55131274 -0.19137844
0.30623507 0.17008914 0.36997896 0.044115935 -0.37602648 0.56124836 0.56102055 -0.45117748
-0.22324827 -0.46947646 -0.5801588 -0.2793824 -0.35138017 0.52660745 0.4702795 0.24349064

layer2.weight f4 [64, 64]
00000000: 82cd a23d 2357 12bd fa3d cfbd 0cd6 cdbd
00000010: e74b 68bd 4610 84bd bd16 dabb 0bc1 bd3d
00000020: d2f4 2c3b 818f 49bc bff9 87bc 5d95 003e
00000030: f1b4 ee3d 71f7 1d3d 9b67 c5bb c6d0 96bd
00000040: 4254 c83d 68b5 483d 4a5e 44bd 405b 65ba
00000050: 32e0 0fbc ad5b b7bd 4cf4 2d3d 9fff 92bd
00000060: 3943 c3bc 500e bdbd 1138 e6bd f4a9 ca3d
00000070: 9487 103c 5169 e93d fed6 4ebd cedf 9abd
00000080: 030a 2abd 83c9 bebd 11bd 82bd dde7 953d
00000090: a5bd da3c 8708 2ebd e450 5d3d aa80 d6bc
000000a0: 36b6 bd3d 3cfb ea3d 7acb 833d b3df c23d
000000b0: 53d6 aebd 7267 64bd 2c1a 5ebc 92db 34bd
000000c0: 02e6 9a3d 974a 69bd 337a a63c 3731 dabd
000000d0: 3218 0f3d c5cd b23d 3c30 b43b 875f 16bd
000000e0: 51a8 5bbd 8221 af3d 9a2b 143e f40c ae3d
000000f0: 3f09 a23d 811c 08be 0dfc 993d 44ea f53c
00000100: 5408 66bd 5a81 a7bd 1acc d7bd b0a0 fa3c
00000110: 7a9c 833d d236 bb3d 5857 c4bc 5609 f1bd
00000120: 2aea ec3d 2c27 10bd d043 463c aa6e b63d
00000130: e4fd 02bd c013 8abb c0b6 36bd f638 89bd
00000140: 66e2 973d 7a48 ecbd 9835 a3bc e862 ec3d
00000150: d019 473d 0089 5dba 584b 6b3d acc3 eabd
00000160: a075 97bc 9485 8f3d 586d ce3d a83d 8bbd
00000170: bc20 eabd 50d9 34bd 5297 fdbd 5a37 afbd
00000180: aca8 7fbd ac81 023d 8236 e4bd 4001 79bc
00000190: fa78 e0bd 4867 a23c f2ea a3bd eac9 813d
000001a0: 5a60 a2bd 40a1 663b 1208 d8bd e0e9 38bd
000001b0: 9017 a3bd ece4 2fbd d48c 6abd d098 85bc
000001c0: 507d 383d 7cd9 8c3d 0e4c bcbd 68bb fbbc
000001d0: fccd 313d 186c b23c 0419 58bd 80bf 0c3b
000001e0: 744d 1abd 7499 233d 343d b2bd dc90 d03d
000001f0: b41e f33d ac7e abbd 7406 513d 9cf2 d0bd
00000200: 545e 12bd 4264 e6bd fc85 84bd 14cd 893d
00000210: fc08 323d e431 913d 1caf 033d f4dc f2bd
00000220: 503e 88bd f049 53bd 4001 023b 0c1b 4ebd
00000230: 1c64 573d e045 bebc 0410 f53d 00c4 7fba
00000240: 9848 03bd 789d a03c 5ad0 f1bd 269b fcbd
00000250: 0c99 ba3d e0ab 92bc 5c18 a0bd a45b 34bd
00000260: 600c d13b 927f 85bd 4008 edbd ec0c 11bd
00000270: 9866 b43d 9a7b 9abd f866 673d 48e4 b23d
00000280: a4a5 cb3d 9446 ae3d 906c 20bc 76b4 953d
00000290: 1494 8dbd ca3b dfbd 24e6 d93d 0c7f 1fbd
000002a0: 50ca 7b3d 5038 263c 2857 453d b0b1 0c3c
000002b0: 74b1 99bd b09a 173d 588c 54bd 7ee0 bfbd
000002c0: 10a1 2b3d dc08 8dbd 6a5c cebd 3e1f d3bd
000002d0: 8af0 c3bd 1aa0 e1bd f01b 06bd ee33 903d
000002e0: 00db fd3a 7c95 6b3d f26e 8cbd e01c a13c
000002f0: 60be 7ebd 7861 9b3c 700d a6bc 8606 eebd
00000300: 3c9d afbd 9559 59bd 894c 80bd 986c 153d
00000310: 8f2d 63bd 0ed6 42bd aa55 523d 7373 bb3c
00000320: e2f3 74bc b0b3 903c e149 f2bd c052 563d
00000330: 0ffc 8a3d c3f6 af3b c62e fcbd c4a1 97bd
00000340: 8df1 813d 243b 633c d6a5 f03b 76d3 b6bc
00000350: 4113 1cbc 53e2 ac3c fbcf be3b aa80 493d
00000360: c5fb d5bd 3c1e 4c3c 2030 73bd 0406 e83d
00000370: 4642 fc3d d335 56bd cec0 ee3d edfe 283d
00000380: 4a12 5dbd dcaf 31bd 63db ff3d 885a 123d
00000390: bdf1 9abd 1ce0 c13d 64f2 a83d 8575 93bd
000003a0: 0716 b53d 14ed 0abe 374b ecbd dfef 883d
000003b0: e29c a9bd 735d 693d 6721 5abc 86cf 1ebd
000003c0: b9c9 71bb 7c2d 56bd d9ab f03d 5a1d 403d
000003d0: 47df c13d cb8e 093d 3657 d3bd 5ee7 0ebe
000003e0: 0c50 c9ba 5617 463a 99c9 6d3c c199 3d3d
000003f0: c3b4 8ebd ca9f c9bb fe23 d6bc 9501 5a3d
0.07949354 -0.03572763 -0.10119243 -0.10050592 -0.05671301 -0.064484164 -0.0066555426 0.09265336
0.0026391041 -0.01230228 -0.01659858 0.12556978 0.116556056 0.038566057 -0.0060243136 -0.07364039
0.09781696 0.049001127 -0.047941484 -0.0008749254 -0.00878148 -0.08953033 0.042469308 -0.07177662
-0.023835765 -0.092312455 -0.112411626 0.09895697 0.008821387 0.11397041 -0.050498 -0.075622186
-0.041513454 -0.09315779 -0.06383718 0.07319615 0.026701758 -0.0424886 0.05403222 -0.026184399
0.092632696 0.114737004 0.064352944 0.095153235 -0.08536973 -0.055762716 -0.013556045 -0.04415471
0.07563402 -0.0569559 0.020321941 -0.10653918 0.034935184 0.08730654 0.005498914 -0.036712196
-0.053627316 0.08551313 0.14469758 0.08498564 0.0791192 -0.13292123 0.07518778 0.030018933
-0.056160286 -0.08178969 -0.10536976 0.0305942 0.0642633 0.091413155 -0.02396743 -0.11769359
0.11568101 -0.035193607 0.012101129 0.08907826 -0.03198041 -0.00421378 -0.044607878 -0.067003176
0.07416229 -0.11537261 -0.019923016 0.11542302 0.0486086 -0.00084508955 0.0574449 -0.11463103
-0.018488705 0.070079 0.100794494 -0.06798869 -0.11432025 -0.044152558 -0.12382378 -0.08555479
-0.062416717 0.031861946 -0.11143209 -0.015198052 -0.109605744 0.019824639 -0.08003797 0.0633734
-0.07928534 0.0035191327 -0.10548414 -0.045144916 -0.079634786 -0.042942926 -0.05726321 -0.016308218
0.045041382 0.06877419 -0.09194194 -0.03072901 0.043409333 0.021780059 -0.05275823 0.0021476448
-0.03767152 0.039941266 -0.0870308 0.1018388 0.118710905 -0.0837377 0.051031545 -0.10202524
-0.03573449 -0.112495914 -0.06470868 0.06728569 0.0434656 0.07089594 0.03214942 -0.1185855
-0.0665251 -0.051584184 0.001983717 -0.050318763 0.052585706 -0.023226678 0.11965945 -0.00097566843
-0.032051653 0.019606337 -0.11807318 -0.1233428 0.091112226 -0.017904222 -0.07817146 -0.044032708
0.006379649 -0.06518473 -0.11573839 -0.035412714 0.08808631 -0.075431064 0.056494683 0.087349474
0.09943703 0.085095555 -0.009791508 0.07309811 -0.06913009 -0.10900076 0.10639599 -0.03893952
0.061472237 0.010145262 0.04817882 0.008587286 -0.075045496 0.037012756 -0.051891655 -0.0936899
0.041901648 -0.068864554 -0.1007622 -0.10308693 -0.095673636 -0.11016865 -0.032741487 0.07041155
0.0019367635 0.057515606 -0.06857099 0.019667089 -0.062193274 0.018967375 -0.02027008 -0.11622338
-0.08574912 -0.053063948 -0.06264598 0.036480516 -0.05546337 -0.04756742 0.051351227 0.022882199
-0.014950724 0.017663807 -0.118304975 0.05232501 0.067863576 0.0053699925 -0.12313609 -0.07403901
0.063449 0.013869081 0.007343988 -0.02231763 -0.009526075 0.021104014 0.005823133 0.04919497
-0.10448412 0.01245838 -0.059372067 0.113292724 0.12317328 -0.052297425 0.11657868 0.04125874
-0.05397252 -0.043380603 0.124930166 0.03573087 -0.07565639 0.094665736 0.08249357 -0.072001494
0.08842092 -0.13567 -0.115377836 0.06686377 -0.08281876 0.056973886 -0.013313628 -0.03877213
-0.0036893918 -0.05228947 0.11751527 0.04690299 0.09466415 0.033583444 -0.103193685 -0.13955447
-0.0015358939 0.0007556578 0.014513397 0.04628921 -0.06968071 -0.0061530815 -0.02614021 0.053224165

layer2.bias f4 [64]
00000000: 750e bc3c e270 91bd 8069 1a3b 0eab 9fbc
00000010: e4a8 393d 75c2 503d 09f8 2dbc 2d9a 36bd
00000020: 1bc6 163e 4854 56bd 22f9 9bbd fb78 98bd
00000030: d443 88bb a638 b83c 1108 c03b 0e74 c8bd
00000040: 1623 913c b57c 90bd 17b7 7ebd 9e0b 90bd
00000050: 2be6 acbb ff51 823d 15a3 d13d 53f4 713d
00000060: 8bc4 d83d 5382 a23d 7fd4 7f3d 23cf 07bd
00000070: e01c 8b3d 22a1 9dbd 847a c7bd 5f00 9b3d
00000080: b8ed 863d 1234 813d a5a0 873d 7c8d 89bd
00000090: 2f3b a1bc 430a 3dbd 8a62 143d 8c5d 42bd
000000a0: 024b e1bd 8c2f 3abd 546a 773d 86b9 d2bd
000000b0: e4e1 173d 43e3 00be 8ea0 1ebd 25bd ec3c
000000c0: d320 3f3d ca46 14bb e8d9 16bd 3a1f 043c
000000d0: f606 f53a d920 a23b 6435 b43c f950 98bd
000000e0: 0738 f4bd 5e49 ddbd fc51 07be ba65 8a3b
000000f0: 79e2 a03d 2475 febd bb6d 353d f3a6 2abd
0.022956112 -0.07101609 0.0023561418 -0.019490745 0.045327082 0.0509667 -0.010618218 -0.044580627
0.14724009 -0.05232647 -0.07615878 -0.0744495 -0.0041584764 0.02248795 0.0058603366 -0.09787761
0.017716926 -0.07055036 -0.062186327 -0.07033466 -0.0052764616 0.06363296 0.102361836 0.059070896
0.105843626 0.079350136 0.06245851 -0.033156525 0.06792617 -0.07696749 -0.09740165 0.0756843
0.0658831 0.0630876 0.066224374 -0.06716439 -0.019681541 -0.046152364 0.036226787 -0.047452495
-0.11000635 -0.0454555 0.060404137 -0.10289292 0.03708066 -0.12586693 -0.038727336 0.028898785
0.046662163 -0.0022625201 -0.036828905 0.008064086 0.0018694091 0.0049477634 0.021998115 -0.07437319
-0.11924749 -0.10805009 -0.13214868 0.0042235525 0.07855696 -0.124246866 0.0442941 -0.04166312

layer3.weight f4 [1, 64]
00000000: 7d26 9bbd 10e2 323d d44f b1bd 1418 043d
00000010: 3036 163d 9edb b73c 3fff c2bd 8082 e93c
00000020: cce0 2e3d 18a3 3a3d 94f9 873d a75b 3ebd
00000030: b537 9dbd 651c f53d 7e23 06bc f6e3 7dbd
00000040: 5f48 a6bd 5dd2 1dbc 681c ae3d c989 de3d
00000050: 3e85 2cbd bd0f fd3d ca24 1cbd 9b6b 9c3b
00000060: 58f9 8dbd 71cd cdbd edc9 e3bd 82f3 ac3c
00000070: 9466 3b3d c849 a9bd 3dcc 933d dc4b 643d
00000080: a502 b4bc 9b6b ecbd 1d72 18bd 78c1 db3c
00000090: fdb1 6d3d 83c9 d43d a767 813c 9867 6f3d
000000a0: 6444 e73c 8e80 fbbd fa73 a2bd 7342 bc3d
000000b0: 84d7 de3d a5a7 bb3b 0e9e 80bd bed1 9a3c
000000c0: 5e84 22bd aec7 4a3d c812 d63d 58a8 f6bd
000000d0: 79c6 87bd 9a42 dcbb 1c6b 3dbd ee83 6d3d
000000e0: aac0 86bd d044 0e3d 1684 8abd 4883 813d
000000f0: 4ec0 79bd 8046 a7ba 8779 74bd 8b6a ebbd
-0.075757004 0.04367262 -0.08657804 0.032249525 0.03667277 0.022443589 -0.095213406 0.02850461
0.04269485 0.045565695 0.066394 -0.046474125 -0.07676641 0.119683065 -0.008187173 -0.06198498
-0.081192724 -0.009632674 0.08501512 0.10866124 -0.042119257 0.123565175 -0.038121022 0.0047735698
-0.06932324 -0.100489505 -0.11122499 0.021112207 0.045752123 -0.08266026 0.0721669 0.055736408
-0.021973917 -0.115439616 -0.037218202 0.026825652 0.05803107 0.10389998 0.015796496 0.058448404
0.028230853 -0.12280379 -0.07932277 0.09192362 0.1088095 0.005726772 -0.062801465 0.018898841
-0.039677016 0.049506836 0.10452801 -0.12043828 -0.066296525 -0.0067218067 -0.046244726 0.057987146
-0.065797165 0.034733593 -0.06763475 0.06323868 -0.06097441 -0.00127621 -0.05968621 -0.11494931
