models/ppo_450000_lr=0.0003.pth (torch, 20682 bytes, 5 tensors)

layer1.weight f4 [64, 3]
00000000: a0cf a33e 3e08 be3e b1d7 0e3f 77d7 c4be
00000010: bb11 a43e 30c7 b7be 16e1 733e a9a2 833e
00000020: f6a3 073f ef64 a83d 082a d63d 3cda 8f3e
00000030: 38a0 05bf 51b8 323e 5d06 033f c663 d7bc
00000040: d57d 543e 5cef f2bd 544d b0be 864e 02bf
00000050: 0a45 133f cbc7 2bbd 536f 73be f4ba 8c3e
00000060: b022 02bf 528f b1be 4452 ba3d e928 c8be
00000070: d2cb 063f 7df8 763e f56b 9bbd 0c4a c53e
00000080: f68a 98be 11ad 0c3f 2f06 003f edc1 77be
00000090: e77f 8a3e 3d1f 1ebe 2322 92be a264 ffbe
000000a0: 4856 723c 27cd eb3e a726 bebe 6ee2 6c3e
000000b0: 78be 203d 15ae 69be 28ec d33e b1de eabe
000000c0: 8efb 183e 3655 9d3e 0033 073e cb10 ec3d
000000d0: 1964 17bf f229 d63d 7007 87be eb98 b5be
000000e0: 1467 9b3e 1edb e13e 6f7b 9dbe 032b 223e
000000f0: 9f16 b03e d49a 2bbe 961d ac3e 52ed b93d
00000100: 3599 80be 7d6d 7b3e 632d aebe ab67 bd3e
00000110: 9d91 d3be 9d2a febe eeb3 ccbe 2869 e5be
00000120: 4845 d23d 297a f23e 0898 00bf 6079 f73c
00000130: e71a d73e c3ff e3be f860 e13e 0032 44be
00000140: 39a1 0a3f f6d6 19bd e852 d7be a8d4 febe
00000150: c5c4 353e 0787 f5bc f352 273d 289a bd3e
00000160: 3e10 2abe 6750 ccbe ada5 99bd fac2 64bd
00000170: f081 f5be 03f7 bd3e 2959 9dbe 1d16 fdbe
00000180: c4ad 90be b6f6 01bf 424e 9f3c 1ef0 8bbe
00000190: ce4b 08bf b6a7 e9be 3109 903e d820 5a3e
000001a0: 0353 053e ca88 703e d37f 85be 56c3 803e
000001b0: 1bdd 433e 599c 093e 75de 8fbe 8055 243e
000001c0: 8417 cf3e 39ac 953e 5f90 45be 1a59 4fbe
000001d0: 9aa0 003f a162 95be 10ef 94be ed51 f8be
000001e0: f20f cf3e 771a b9be c764 97be 0546 e7be
000001f0: b900 4bbe 3489 d33e 1063 e93e 7631 08be
00000200: f55d ce3e b069 743e 6011 abbe 5bb5 203e
00000210: dafd b6be 3532 033f f69e 61be 81d9 9fbd
00000220: b982 893e ffa1 b83d cb7a 583d 10ea 41be
00000230: 57a1 0dbf 63ef d5be a3c4 ee3e 5dae 99be
00000240: 521e 5fbe b5e3 06bf cd6a cc3e 741c cc3e
00000250: 03ca 363d 7c45 0d3f 1133 9c3c 575e d63e
00000260: 0b1e 593e c0dd 15bf e247 ae3e f608 4bbe
00000270: 4d7f e2be 900d 173f dc9e cc3e 49d8 a73e
00000280: 8ade 93be 1565 46be ff9c b23d 522e 653d
00000290: 1c09 a03e 4d05 f93d ca08 e2be 86f0 053f
000002a0: 548b 173f 045f 0d3f 02a3 b5be a1da 913e
000002b0: ae36 8bbe 93bb 90be f39d 023f b8dd 883e
000002c0: 02f8 abbe 2f65 b23e e564 ebbc 64ba c93e
000002d0: 16ea 81be 53b1 f83e 01f5 90be 8cb0 123f
000002e0: 8a01 cebd b8a8 8d3d 4f20 3fbe b384 153f
000002f0: 0b50 b4be 0730 dd3c ee68 953d a73a ab3d
0.31994343 0.37115663 0.5579787 -0.38445637 0.32044777 -0.35894156 0.23816332 0.25710037
0.5298456 0.082223766 0.104572356 0.28096187 -0.521976 0.17453124 0.51181585 -0.026292693
0.20751126 -0.118620604 -0.34433997 -0.5090107 0.5752722 -0.041938584 -0.23772936 0.27486384
-0.5083418 -0.34679657 0.09097722 -0.39093712 0.52654755 0.24118228 -0.075889505 0.38533056
-0.2979352 0.5495158 0.50009435 -0.2419507 0.27050707 -0.15441604 -0.2854167 -0.49881464
0.014791079 0.46054956 -0.37138864 0.23133251 0.039244145 -0.22820313 0.4139111 -0.45873025
0.1493971 0.30729073 0.13203049 0.115266405 -0.5913711 0.10457219 -0.26372862 -0.3546823
0.3035208 0.44112486 -0.30758235 0.1583672 0.3439226 -0.16758281 0.33616322 0.090784684
-0.25116888 0.24553485 -0.34019002 0.36993155 -0.41322032 -0.49641886 -0.39981025 -0.4480679
0.102671206 0.47358826 -0.5023198 0.030209243 0.42012712 -0.44531068 0.44019294 -0.19159698
0.54152256 -0.03755852 -0.4205544 -0.4977162 0.17750843 -0.029971613 0.04085059 0.37031674
-0.16607758 -0.39905092 -0.07502303 -0.055850007 -0.47950697 0.37102517 -0.30732086 -0.49430934
-0.28257573 -0.50767076 0.019446496 -0.27331632 -0.5324067 -0.45635766 0.28132012 0.21301591
0.13019948 0.23489681 -0.26074085 0.2514903 0.19127314 0.13438548 -0.2809941 0.1604824
0.40447628 0.29232958 -0.19293354 -0.20248833 0.5024506 -0.2917681 -0.2908864 -0.48500004
0.40441853 -0.36153004 -0.29569075 -0.45170608 -0.19824494 0.41315615 0.4558339 -0.13300118
0.4030606 0.23868442 -0.33411694 0.15694182 -0.35740548 0.51248485 -0.22033295 -0.078051575
0.26857546 0.09015273 0.05285148 -0.18936944 -0.5532431 -0.417842 0.46634397 -0.3001584
-0.2178891 -0.52691203 0.39925233 0.39865458 0.044626247 0.5518415 0.01906732 0.4186885
0.21202867 -0.5854149 0.34039217 -0.19827637 -0.44237748 0.5900507 0.3996495 0.327822
-0.2888072 -0.19374497 0.08721351 0.055952378 0.3125695 0.12159214 -0.4414733 0.52320135
0.5919697 0.5522311 -0.35475928 0.28487113 -0.27190155 -0.28268108 0.5102226 0.26731658
-0.33587652 0.34842822 -0.028734634 0.39400017 -0.25373906 0.48572788 -0.28311923 0.5730064
-0.10058887 0.06916946 -0.18664669 0.5840561 -0.35217318 0.02700044 0.072954044 0.083607964

layer1.bias f4 [64]
00000000: 0136 ebbe 0646 96be b4e3 0dbf 6034 023f
00000010: 48f6 e43d 8e21 553e 7f8e 083f c6f4 c6be
00000020: 427c 56be 99cf 013f 04c0 cdbd 4a90 e8bd
00000030: 8ec5 fbbe e005 bdbe c061 863e 9502 4dbe
00000040: 65cf 8abe 8e8c 123f d102 893e 26de e63e
00000050: f5cf 123e 1c7b 02bf 7df4 d9bc 6534 003f
00000060: 0f6e 103f aa74 d53e 41cd 0bbf a5ec c13e
00000070: 168b 9f3e 1367 4c3e da6a bb3e 6ac4 afbe
00000080: 6ef4 d4be 9c76 a13d 3b39 123f 6bd1 10be
00000090: 2903 c2be ae63 ef3e e3c8 debe 08cf ae3d
000000a0: cf52 aabe c1a8 0ebf 7618 1cbe 9d59 00be
000000b0: 09a1 063f a401 ffbe f4f3 0abf b56a 42be
000000c0: 76c8 933e 8774 293e 369e c23e c8ec 1c3d
000000d0: bf05 c7be 2d13 123f cc0e 0e3f f5be e6be
000000e0: 29b1 5ebe c9aa e8be 41f8 12bf 0b71 8bbe
000000f0: e88b b1be 1c8a 033f af17 ee3e d28d 823e
-0.4593964 -0.293503 -0.5542557 0.5086117 0.11179787 0.20813581 0.5334243 -0.38858622
-0.20945838 0.50707394 -0.1004639 -0.11355646 -0.4917416 -0.36918545 0.26246452 -0.20020516
-0.27111354 0.5724572 0.2675996 0.4509136 0.14337142 -0.509691 -0.026605839 0.5007995
0.56417936 0.4169057 -0.5461007 0.37875858 0.31160802 0.19961195 0.3660496 -0.3432954
-0.41592735 0.07883951 0.57118577 -0.14142387 -0.37893036 0.46755737 -0.4351264 0.08535582
-0.33266303 -0.5572625 -0.15243706 -0.12534185 0.5258947 -0.4980594 -0.5427849 -0.18986018
0.28863877 0.16548358 0.3801133 0.03831175 -0.3887157 0.5706051 0.5549133 -0.45067564
-0.21747269 -0.454428 -0.57410055 -0.27234682 -0.34677052 0.51382613 0.46502444 0.25498825

layer2.weight f4 [64, 64]
00000000: 2c5e b03d 7507 e3bc 8d8a c2bd 7da7 c0bd
00000010: 3434 4fbd c32e 66bd 623c f4ba 4e3e c43d
00000020: b0b5 9e3b ccfe 6cbb d0dc 09bc b002 093e
00000030: 057a f73d b0a7 343d eb15 053c c01a 87bd
00000040: a30e db3d 49a4 513d 9dd3 31bd f63d 3b3b
00000050: 0988 8fbb b06b b3bd d727 4d3d 8b79 84bd
00000060: 3204 86bc 917c adbd 6aa3 debd a8a5 d73d
00000070: e8df 643c 315f f53d b396 32bd 888e 90bd
00000080: 07ef 37bd 8e55 b2bd 8a1a 64bd f245 9a3d
00000090: 3aa5 093d 76c4 11bd aac3 6e3d 2c51 a3bc
000000a0: a9fb c43d f322 f33d 6e8c 8b3d 10d7 c33d
000000b0: 640d 9cbd e066 30bd c1c6 03bc d478 0fbd
000000c0: 2366 a33d 81bc 54bd 5594 e83c bee8 c6bd
000000d0: 0546 2f3d 90a5 bf3d f189 3f3c 5d11 0bbd
000000e0: d275 3bbd 36f7 b53d 0d6e 1b3e 062e b73d
000000f0: 96a6 b53d 54f6 04be da67 aa3d 494b 193d
00000100: 5408 66bd 5a81 a7bd 1acc d7bd b0a0 fa3c
00000110: 7a9c 833d d236 bb3d 5857 c4bc 5609 f1bd
00000120: 2aea ec3d 2c27 10bd d043 463c aa6e b63d
00000130: e4fd 02bd c013 8abb c0b6 36bd f638 89bd
00000140: 66e2 973d 7a48 ecbd 9835 a3bc e862 ec3d
00000150: d019 473d 0089 5dba 584b 6b3d acc3 eabd
00000160: a075 97bc 9485 8f3d 586d ce3d a83d 8bbd
00000170: bc20 eabd 50d9 34bd 5297 fdbd 5a37 afbd
00000180: aca8 7fbd ac81 023d 8236 e4bd 4001 79bc
00000190: fa78 e0bd 4867 a23c f2ea a3bd eac9 813d
000001a0: 5a60 a2bd 40a1 663b 1208 d8bd e0e9 38bd
000001b0: 9017 a3bd ece4 2fbd d48c 6abd d098 85bc
000001c0: 507d 383d 7cd9 8c3d 0e4c bcbd 68bb fbbc
000001d0: fccd 313d 186c b23c 0419 58bd 80bf 0c3b
000001e0: 744d 1abd 7499 233d 343d b2bd dc90 d03d
000001f0: b41e f33d ac7e abbd 7406 513d 9cf2 d0bd
00000200: 545e 12bd 4264 e6bd fc85 84bd 14cd 893d
00000210: fc08 323d e431 913d 1caf 033d f4dc f2bd
00000220: 503e 88bd f049 53bd 4001 023b 0c1b 4ebd
00000230: 1c64 573d e045 bebc 0410 f53d 00c4 7fba
00000240: 9848 03bd 789d a03c 5ad0 f1bd 269b fcbd
00000250: 0c99 ba3d e0ab 92bc 5c18 a0bd a45b 34bd
00000260: 600c d13b 927f 85bd 4008 edbd ec0c 11bd
00000270: 9866 b43d 9a7b 9abd f866 673d 48e4 b23d
00000280: a4a5 cb3d 9446 ae3d 906c 20bc 76b4 953d
00000290: 1494 8dbd ca3b dfbd 24e6 d93d 0c7f 1fbd
000002a0: 50ca 7b3d 5038 263c 2857 453d b0b1 0c3c
000002b0: 74b1 99bd b09a 173d 588c 54bd 7ee0 bfbd
000002c0: 10a1 2b3d dc08 8dbd 6a5c cebd 3e1f d3bd
000002d0: 8af0 c3bd 1aa0 e1bd f01b 06bd ee33 903d
000002e0: 00db fd3a 7c95 6b3d f26e 8cbd e01c a13c
000002f0: 60be 7ebd 7861 9b3c 700d a6bc 8606 eebd
00000300: 8ffb c1bd 8196 0fbd 149c 8dbd 32ad d43c
00000310: a420 84bd 7938 05bd d679 2b3d 2861 003d
00000320: 4385 09bc 9a19 353c 1314 d1bd 0946 7c3d
00000330: 9c2b ae3d 5c4b f839 d411 eebd 6579 68bd
00000340: ffc4 5d3d 7703 9d3c ae70 153a 6841 dfbc
00000350: 444f 68bc 6efd fc3c 850f c33c 7539 8c3d
00000360: edd3 b3bd 4b9f f23c 29c4 6ebd 3ff8 063e
00000370: bf1c f63d df07 13bd e62b 0a3e af1f 6e3d
00000380: 02c6 8ebd 7546 bdbc cabb e83d f340 1e3d
00000390: 4a1e 77bd 2a77 ae3d a401 b03d be9c 56bd
000003a0: e3a3 d73d 55d7 07be 7bec edbd f2c7 863d
000003b0: 2321 89bd f01a 6a3d 4b9a a33b beb7 b3bc
000003c0: 0311 3dbc d037 69bd ab8c dc3d e333 863d
000003d0: b815 af3d 4b01 493d 9c07 e9bd a5ad 04be
000003e0: 82d7 293c 3866 973c cac4 df3c b39b 313d
000003f0: 2e0c 63bd 2ecd e5bb 3eae 24bc e2e5 363d
0.08611712 -0.027713517 -0.09499083 -0.09406946 -0.050586894 -0.05619694 -0.0018633718 0.09582196
0.004843436 -0.0036162613 -0.008414462 0.13379931 0.1208382 0.04410523 0.008122901 -0.06596899
0.10696151 0.051182065 -0.0434147 0.0028570867 -0.0043802303 -0.08760774 0.050086822 -0.06468495
-0.016359422 -0.08471025 -0.108710125 0.10529643 0.013969399 0.11981047 -0.04360075 -0.07058436
-0.04490569 -0.087077245 -0.055689372 0.07532872 0.033604838 -0.03558775 0.05829207 -0.019936167
0.09618313 0.118719004 0.06813894 0.09562504 -0.076197416 -0.04306686 -0.008042992 -0.03502734
0.079784654 -0.051937584 0.028391043 -0.09712361 0.042791385 0.093577504 0.011690603 -0.033952106
-0.04576666 0.08885042 0.151787 0.08944325 0.08869664 -0.12984592 0.08320589 0.037425313
-0.056160286 -0.08178969 -0.10536976 0.0305942 0.0642633 0.091413155 -0.02396743 -0.11769359
0.11568101 -0.035193607 0.012101129 0.08907826 -0.03198041 -0.00421378 -0.044607878 -0.067003176
0.07416229 -0.11537261 -0.019923016 0.11542302 0.0486086 -0.00084508955 0.0574449 -0.11463103
-0.018488705 0.070079 0.100794494 -0.06798869 -0.11432025 -0.044152558 -0.12382378 -0.08555479
-0.062416717 0.031861946 -0.11143209 -0.015198052 -0.109605744 0.019824639 -0.08003797 0.0633734
-0.07928534 0.0035191327 -0.10548414 -0.045144916 -0.079634786 -0.042942926 -0.05726321 -0.016308218
0.045041382 0.06877419 -0.09194194 -0.03072901 0.043409333 0.021780059 -0.05275823 0.0021476448
-0.03767152 0.039941266 -0.0870308 0.1018388 0.118710905 -0.0837377 0.051031545 -0.10202524
-0.03573449 -0.112495914 -0.06470868 0.06728569 0.0434656 0.07089594 0.03214942 -0.1185855
-0.0665251 -0.051584184 0.001983717 -0.050318763 0.052585706 -0.023226678 0.11965945 -0.00097566843
-0.032051653 0.019606337 -0.11807318 -0.1233428 0.091112226 -0.017904222 -0.07817146 -0.044032708
0.006379649 -0.06518473 -0.11573839 -0.035412714 0.08808631 -0.075431064 0.056494683 0.087349474
0.09943703 0.085095555 -0.009791508 0.07309811 -0.06913009 -0.10900076 0.10639599 -0.03893952
0.061472237 0.010145262 0.04817882 0.008587286 -0.075045496 0.037012756 -0.051891655 -0.0936899
0.041901648 -0.068864554 -0.1007622 -0.10308693 -0.095673636 -0.11016865 -0.032741487 0.07041155
0.0019367635 0.057515606 -0.06857099 0.019667089 -0.062193274 0.018967375 -0.02027008 -0.11622338
-0.09471809 -0.03505564 -0.06914535 0.025961492 -0.06451538 -0.03252456 0.04186424 0.031342655
-0.0083935885 0.011053467 -0.10208907 0.06159023 0.085044116 0.00047358393 -0.11624494 -0.056756396
0.05414295 0.019166691 0.00057006895 -0.027252868 -0.014179055 0.030882563 0.023811111 0.068468966
-0.08780656 0.029616972 -0.05829254 0.13180636 0.12017202 -0.03589618 0.13493308 0.058135685
-0.06971361 -0.023104886 0.11363943 0.03863616 -0.06033162 0.085188225 0.08594063 -0.052395575
0.10529306 -0.13265736 -0.11617371 0.06581105 -0.066957735 0.057154596 0.0049927584 -0.021938201
-0.0115397 -0.056937993 0.10769018 0.06552865 0.085490644 0.0490735 -0.113784045 -0.12956865
0.0103663225 0.018481359 0.027315516 0.043361377 -0.055431537 -0.0070129847 -0.010051308 0.044652827

layer2.bias f4 [64]
00000000: 805c 093d e270 91bd 8069 1a3b d8e5 26bc
00000010: 05a3 3a3d 6260 433d 83d9 27bc 3d2c 24bd
00000020: 1d5b ce3d 4854 56bd 5f6d a8bd 4678 98bd
00000030: 9aa6 91bb 8979 343b d94f a13b 0e74 c8bd
00000040: e66c a23c 2dbb 8abd 361a 84bd bfba a3bd
00000050: 4bcd 0ebc 39df 703d 6442 dc3d c4c1 883d
00000060: b851 d13d 8bb2 b83d c8fe 8d3d c4a5 e9bc
00000070: 4436 823d 73bf 76bd 847a c7bd 2b3c a43d
00000080: 3e9f 823d 75f7 893d f088 883d 7c8d 89bd
00000090: 2f3b a1bc 7a68 5dbd bb1d fa3c 8c5d 42bd
000000a0: 26bf d2bd 8c2f 3abd c278 853d 365d eabd
000000b0: b286 183d 43e3 00be 8ba4 24bd 1b6b e83c
000000c0: e13a 413d 8798 bbbb 303d 02bd 4729 093c
000000d0: 01a2 1abc d920 a23b 6435 b43c b53d a0bd
000000e0: 221e f2bd 5e49 ddbd 7239 f5bd 9324 9a3b
000000f0: d768 9b3d 2475 febd d5dc 1b3d 15fb 2fbd
0.03353548 -0.07101609 0.0023561418 -0.010186635 0.045565624 0.04769934 -0.01024473 -0.04008125
0.10075972 -0.05232647 -0.08223986 -0.07444815 -0.0044449093 0.002753826 0.0049228487 -0.09787761
0.019827317 -0.06773982 -0.06450312 -0.07994603 -0.008715938 0.05880663 0.107548505 0.06677583
0.10220665 0.09018429 0.06933361 -0.028521426 0.063580066 -0.060241174 -0.09740165 0.08019289
0.06378029 0.06736652 0.06666744 -0.06716439 -0.019681541 -0.054054715 0.030531755 -0.047452495
-0.10290365 -0.0454555 0.06517173 -0.1144356 0.03723783 -0.12586693 -0.040195983 0.028371384
0.047175292 -0.00572497 -0.031796634 0.008371658 -0.009438039 0.0049477634 0.021998115 -0.0782427
-0.11822154 -0.10805009 -0.119738474 0.004704067 0.07588356 -0.124246866 0.0380524 -0.04296406

layer3.weight f4 [1, 64]
00000000: 5833 a5bd 10e2 323d d44f b1bd f799 2a3d
00000010: 9d37 163d 3aa3 c73c c94c cdbd 6493 f43c
00000020: 87f7 193b 18a3 3a3d 6e41 843d a75b 3ebd
00000030: 844a a7bd 809f d93d 87ef 08bc f6e3 7dbd
00000040: 793f a8bd 018f 76bc f950 ae3d d9f8 cf3d
00000050: 1ae4 38bd 44e4 033e dc5f 48bd 9e29 fd3b
00000060: e77e 9abd dcd3 d8bd f6a0 ecbd 7f13 c63c
00000070: 3b22 2f3d e161 c5bd 3dcc 933d 88e7 6c3d
00000080: 783a b9bc 17b4 f0bd cf70 17bd 78c1 db3c
00000090: fdb1 6d3d 304a d23d f824 4a3c 9867 6f3d
000000a0: 90eb e33c 8e80 fbbd 1903 b0bd 12c1 bb3d
000000b0: 62bc da3d a5a7 bb3b 17da 82bd 635d 6b3c
000000c0: 39d0 2ebd 613b 4f3d e1f7 da3d c0a8 f6bd
000000d0: 353e 6cbd 9a42 dcbb 1c6b 3dbd 8816 6c3d
000000e0: 16dc 87bd d044 0e3d 4b5c 95bd 427f 8a3d
000000f0: 48b2 8fbd 8046 a7ba cdb1 72bd 0754 ecbd
-0.08066434 0.04367262 -0.08657804 0.04165074 0.03667413 0.024369825 -0.10024411 0.029855438
0.0023493485 0.045565695 0.06457792 -0.046474125 -0.081685096 0.10626125 -0.008357889 -0.06198498
-0.082152314 -0.015048743 0.08511538 0.10154886 -0.04513941 0.12880045 -0.048919544 0.0077259084
-0.07543736 -0.10587284 -0.11554138 0.024179218 0.042757254 -0.096378095 0.0721669 0.057837993
-0.022610888 -0.117530994 -0.036972817 0.026825652 0.05803107 0.102680564 0.012337916 0.058448404
0.027822286 -0.12280379 -0.08594341 0.091676846 0.106804624 0.005726772 -0.063892536 0.014365527
-0.042679045 0.050593738 0.106918104 -0.12043905 -0.057676513 -0.0067218067 -0.046244726 0.057638675
-0.06633775 0.034733593 -0.07292994 0.06762554 -0.07016426 -0.00127621 -0.059251595 -0.115394644
