models/ppo_300000_lr=0.0003.pth (torch, 20682 bytes, 5 tensors)

layer1.weight f4 [64, 3]
0.3050497 0.38844523 0.5630904 -0.41717976 0.33159238 -0.36038923 0.24417487 0.23930982
0.52752477 0.09032707 0.09704918 0.27824527 -0.52241147 0.16032848 0.5098503 -0.015374808
0.2057767 -0.118541345 -0.34149384 -0.51290756 0.5710621 -0.046923947 -0.20845251 0.27970055
-0.5184774 -0.3446875 0.09193627 -0.38027862 0.509455 0.24098517 -0.034950696 0.37245023
-0.29928577 0.52064246 0.5115761 -0.24194695 0.22755386 -0.14454222 -0.29922092 -0.5048922
0.0328935 0.4636885 -0.3596896 0.20041944 0.049329482 -0.2544013 0.42844552 -0.45963988
0.13736393 0.31603536 0.13360548 0.121504284 -0.5867526 0.10449186 -0.26779586 -0.3392608
0.31492293 0.42665076 -0.28440043 0.170671 0.33808893 -0.154495 0.33667034 0.095498115
-0.25867152 0.24509239 -0.29588115 0.344133 -0.42809787 -0.48485962 -0.41579375 -0.45459217
0.07285428 0.50016224 -0.49621263 0.048822768 0.4129703 -0.4388806 0.42980334 -0.16224177
0.55031246 -0.020788653 -0.4390913 -0.50438607 0.15795557 -0.03181049 0.048791476 0.32392502
-0.1417788 -0.40438828 -0.051743023 -0.06270164 -0.4793524 0.39759743 -0.32291597 -0.4996676
-0.28311372 -0.5086884 0.022128802 -0.30249688 -0.5323565 -0.45010707 0.252725 0.2171187
0.14507826 0.23593849 -0.25412455 0.2516676 0.2216484 0.12853134 -0.28113848 0.16147196
0.38944817 0.29464063 -0.1994637 -0.19232154 0.5109641 -0.27427652 -0.29908714 -0.48746368
0.42594475 -0.36677867 -0.2950358 -0.45911834 -0.21341391 0.41121548 0.44228414 -0.109703265
0.40829772 0.2359695 -0.3254862 0.16050175 -0.3287484 0.5210232 -0.22060993 -0.070534036
0.2672357 0.08806705 0.08120723 -0.19609413 -0.55417466 -0.4177289 0.4623667 -0.3054936
-0.22777523 -0.5246436 0.39742672 0.39480957 0.044869058 0.5554641 -0.0019967624 0.43096882
0.22054017 -0.5488788 0.3263679 -0.19732918 -0.4503801 0.57878435 0.39710897 0.35186273
-0.30413818 -0.19896099 0.08749746 0.049623575 0.31026682 0.12761563 -0.45467162 0.52226144
0.5659233 0.57131815 -0.35178185 0.2966074 -0.27977583 -0.2935852 0.5320392 0.2637378
-0.3361039 0.33566135 -0.007688919 0.39649025 -0.26329437 0.48774388 -0.29171517 0.56436086
-0.09765046 0.08072637 -0.15289593 0.56933475 -0.36056644 0.005498148 0.106690735 0.09052808
00000000: 792f 9c3e 4be2 c63e b126 103f 9698 d5be
00000010: 7ac6 a93e f084 b8be fa08 7a3e a20d 753e
00000020: dd0b 073f 66fd b83d b8c1 c63d 2a76 8e3e
00000030: c2bc 05bf 262d 243e 8d85 023f 9ee6 7bbc
00000040: 21b7 523e cec5 f2bd 48d8 aebe e94d 03bf
00000050: 2031 123f 5333 40bd 9374 55be e934 8f3e
00000060: efba 04bf e17a b0be 1549 bc3d e1b3 c2be
00000070: a56b 023f d1c4 763e 7628 0fbd ccb1 be3e
00000080: fc3b 99be d348 053f a7f6 023f f1c0 77be
00000090: e103 693e e002 14be 7c33 99be 9d40 01bf
000000a0: 56bb 063d 9468 ed3e 3c29 b8be c13a 4d3e
000000b0: b60d 4a3d e340 82be 365d db3e eb55 ebbe
000000c0: 21a9 0c3e 63cf a13e e0cf 083e 3dd7 f83d
000000d0: 6b35 16bf d4ff d53d 8a1c 89be 97b3 adbe
000000e0: 943d a13e f871 da3e ef9c 91be 61c4 2e3e
000000f0: fe19 ad3e f033 1ebe 0e60 ac3e 8494 c33d
00000100: 9870 84be 80f9 7a3e bc7d 97be 3332 b03e
00000110: a52f dbbe 853f f8be ebe2 d4be 4ec0 e8be
00000120: a034 953d a20a 003f 950f febe 62fa 473d
00000130: d870 d33e f5b4 e0be 2f0f dc3e b522 26be
00000140: 47e1 0c3f f74c aabc 93d0 e0be 721f 01bf
00000150: 1bbf 213e b74b 02bd 92d9 473d 80d9 a53e
00000160: 762e 11be fb0b cfbe 7ef0 53bd b869 80bd
00000170: ae6d f5be e491 cb3e 3e55 a5be 6fd4 ffbe
00000180: 48f4 90be 6739 02bf 7647 b53c dfe0 9abe
00000190: 8448 08bf 6f74 e6be 2c65 813e 5d54 5e3e
000001a0: 658f 143e dc99 713e 9d1c 82be 93da 803e
000001b0: ccf7 623e b89d 033e 62f1 8fbe e858 253e
000001c0: c065 c73e 23db 963e 3640 4cbe f0ef 44be
000001d0: 8bce 023f f96d 8cbe f321 99be d794 f9be
000001e0: 6e15 da3e 6aca bbbe ef0e 97be 8f11 ebbe
000001f0: 2d89 5abe d68a d23e 1173 e23e 1bac e0bd
00000200: 660c d13e fda1 713e 21a6 a6be 925a 243e
00000210: b651 a8be c761 053f 92e7 61be 2674 90bd
00000220: 1ed3 883e 7f5c b43d fa4f a63d e6cc 48be
00000230: 64de 0dbf 90e0 d5be 54bb ec3e a869 9cbe
00000240: e93d 69be 0b4f 06bf 847b cb3e 7b24 ca3e
00000250: 9ec8 373d e532 0e3f 1ddc 02bb f2a7 dc3e
00000260: 48d5 613e 5283 0cbf b219 a73e a910 4abe
00000270: 3898 e6be 362b 143f de51 cb3e 5a27 b43e
00000280: 00b8 9bbe 6ebc 4bbe de31 b33d 1742 4b3d
00000290: 4bdb 9e3e acad 023e b8ca e8be edb2 053f
000002a0: 59e0 103f e841 123f c01c b4be eddc 973e
000002b0: c73e 8fbe cd50 96be b933 083f a408 873e
000002c0: cf15 acbe cedb ab3e 54f3 fbbb c500 cb3e
000002d0: 85ce 86be 91b9 f93e b15b 95be f479 103f
000002e0: f7fc c7bd de53 a53d c090 1cbe ecbf 113f
000002f0: 2a9c b8be cf29 b43b ac80 da3d c966 b93d

layer1.bias f4 [64]
-0.46033567 -0.29537985 -0.55554825 0.5048255 0.113848105 0.20785724 0.5313794 -0.38518196
-0.2024776 0.5000672 -0.103916384 -0.12209138 -0.4886049 -0.36741045 0.25810862 -0.20425117
-0.2703808 0.5743993 0.27060717 0.43480188 0.13748792 -0.51091224 -0.0043543437 0.51575845
0.54891825 0.39407215 -0.5374892 0.39654946 0.30048755 0.19858164 0.36741817 -0.32494232
-0.41784605 0.08505123 0.5533969 -0.13960278 -0.3697366 0.47203016 -0.42661604 0.08394375
-0.32751802 -0.56026727 -0.15347043 -0.120699696 0.5180897 -0.502105 -0.53365445 -0.1871649
0.29668328 0.17357123 0.39682648 0.04091922 -0.38282505 0.5790331 0.5586636 -0.4525678
-0.2257866 -0.43459713 -0.56624895 -0.2719669 -0.33838362 0.48662117 0.48247492 0.25830922
00000000: 1eb1 ebbe 073c 97be 6938 0ebf 3e3c 013f
00000010: 3229 e93d 87d8 543e 7b08 083f 9236 c5be
00000020: 4a56 4fbe 6704 003f 1dd2 d4bd 0c0b fabd
00000030: 6c2a fabe 391d bcbe d026 843e 3827 51be
00000040: 5a6f 8abe d50b 133f 068d 8a3e 5a9e de3e
00000050: a2c9 0c3e 25cb 02bf e2ae 8ebb bf08 043f
00000060: e885 0c3f d3c3 c93e e498 09bf 8808 cb3e
00000070: 81d9 993e fc58 4b3e 3c1e bc3e d75e a6be
00000080: ebef d5be 572f ae3d 6bab 0d3f 08f4 0ebe
00000090: 1e4e bdbe f0ad f13e 6b6d dabe b3ea ab3d
000000a0: 71b0 a7be ad6d 0fbf 5a27 1dbe 6731 f7bd
000000b0: 87a1 043f f489 00bf 949d 08bf 28a8 3fbe
000000c0: dfe6 973e a8bc 313e d72c cb3e e99a 273d
000000d0: a501 c4be 833b 143f 9404 0f3f f7b6 e7be
000000e0: 9a34 67be 8483 debe b1f5 10bf 3f3f 8bbe
000000f0: 9e40 adbe 6926 f93e f406 f73e 1b41 843e

layer2.weight f4 [64, 64]
0.0888279 -0.03173563 -0.09283222 -0.09166646 -0.047571328 -0.050716914 -0.001117221 0.095583566
0.0034314257 0.0023181168 -0.007144798 0.14279425 0.12480594 0.04712719 0.013827165 -0.06627303
0.11247551 0.057103094 -0.04277456 0.006791867 -0.004204699 -0.0897609 0.050567873 -0.06027887
-0.009977812 -0.07876863 -0.108676784 0.11302677 0.025773657 0.12952058 -0.037169844 -0.06313303
-0.06661469 -0.08248231 -0.046854194 0.07388778 0.036987904 -0.031563696 0.0594063 -0.01587886
0.1066497 0.120367594 0.06801656 0.091812566 -0.07294762 -0.036698125 -0.0050253747 -0.039564382
0.079827964 -0.050665557 0.033953 -0.1036358 0.049369927 0.10902682 0.013732903 -0.034500938
-0.038372412 0.09548269 0.15779683 0.090213284 0.08402551 -0.11542226 0.08720634 0.04202015
-0.056160286 -0.08178969 -0.10536976 0.0305942 0.0642633 0.091413155 -0.02396743 -0.11769359
0.11568101 -0.035193607 0.012101129 0.08907826 -0.03198041 -0.00421378 -0.044607878 -0.067003176
0.07416229 -0.11537261 -0.019923016 0.11542302 0.0486086 -0.00084508955 0.0574449 -0.11463103
-0.018488705 0.070079 0.100794494 -0.06798869 -0.11432025 -0.044152558 -0.12382378 -0.08555479
-0.062416717 0.031861946 -0.11143209 -0.015198052 -0.109605744 0.019824639 -0.08003797 0.0633734
-0.07928534 0.0035191327 -0.10548414 -0.045144916 -0.079634786 -0.042942926 -0.05726321 -0.016308218
0.045041382 0.06877419 -0.09194194 -0.03072901 0.043409333 0.021780059 -0.05275823 0.0021476448
-0.03767152 0.039941266 -0.0870308 0.1018388 0.118710905 -0.0837377 0.051031545 -0.10202524
-0.03573449 -0.112495914 -0.06470868 0.06728569 0.0434656 0.07089594 0.03214942 -0.1185855
-0.0665251 -0.051584184 0.001983717 -0.050318763 0.052585706 -0.023226678 0.11965945 -0.00097566843
-0.032051653 0.019606337 -0.11807318 -0.1233428 0.091112226 -0.017904222 -0.07817146 -0.044032708
0.006379649 -0.06518473 -0.11573839 -0.035412714 0.08808631 -0.075431064 0.056494683 0.087349474
0.09943703 0.085095555 -0.009791508 0.07309811 -0.06913009 -0.10900076 0.10639599 -0.03893952
0.061472237 0.010145262 0.04817882 0.008587286 -0.075045496 0.037012756 -0.051891655 -0.0936899
0.041901648 -0.068864554 -0.1007622 -0.10308693 -0.095673636 -0.11016865 -0.032741487 0.07041155
0.0019367635 0.057515606 -0.06857099 0.019667089 -0.062193274 0.018967375 -0.02027008 -0.11622338
-0.09131324 -0.018766776 -0.06688253 0.040309325 -0.05089469 -0.027701147 0.052827455 0.03784364
0.00642736 0.03287961 -0.09681565 0.04814431 0.08093983 0.006976883 -0.08370013 -0.047942486
0.057302807 -0.003141664 0.010359463 -0.049536422 -0.007819095 0.031573325 0.03299761 0.07253674
-0.08737455 0.030274859 -0.057562865 0.12724924 0.09569258 -0.046180267 0.13349165 0.04975791
-0.0733098 -0.022361137 0.110791534 0.0411136 -0.063551076 0.09828816 0.091105804 -0.0505506
0.09153249 -0.12548319 -0.111653656 0.065061055 -0.0524481 0.05758133 0.0042076004 -0.0028598597
-0.004078049 -0.048922006 0.123692565 0.092667945 0.09188549 0.032155823 -0.09968368 -0.12604237
-0.00017567011 0.010347921 0.017531654 0.04514859 -0.03984663 -0.04623173 -0.0030085323 0.059191264
00000000: 67eb b53d 38fd 01bd d21e bebd a0bb bbbd
00000010: 27da 42bd 8abc 4fbd b76f 92ba 51c1 c33d
00000020: c5e1 603b 8ceb 173b e91e eabb a838 123e
00000030: 429a ff3d 7108 413d 558b 623c 28ba 87bd
00000040: 8f59 e63d efe4 693d 6134 2fbd 4f8e de3b
00000050: 92c7 89bb 90d4 b7bd 4220 4f3d fae6 76bd
00000060: fa79 23bc 7351 a1bd ef91 debd 947a e73d
00000070: 4723 d33c 0ba1 043e 683f 18bd e44b 81bd
00000080: 486d 88bd 7cec a8bd 2fea 3fbd 7a52 973d
00000090: a180 173d ef48 01bd 0554 733d 6214 82bc
000000a0: 286b da3d 4983 f63d 444c 8b3d 3a08 bc3d
000000b0: 9065 95bd c650 16bd e6ab a4bb 430e 22bd
000000c0: d87c a33d b086 4fbd 4d12 0b3d 023f d4bd
000000d0: 1f38 4a3d 7449 df3d f8ff 603c db50 0dbd
000000e0: 642c 1dbd 6e8c c33d 7e95 213e bec1 b83d
000000f0: 9115 ac3d 8162 ecbd 3d99 b23d 521d 2c3d
00000100: 5408 66bd 5a81 a7bd 1acc d7bd b0a0 fa3c
00000110: 7a9c 833d d236 bb3d 5857 c4bc 5609 f1bd
00000120: 2aea ec3d 2c27 10bd d043 463c aa6e b63d
00000130: e4fd 02bd c013 8abb c0b6 36bd f638 89bd
00000140: 66e2 973d 7a48 ecbd 9835 a3bc e862 ec3d
00000150: d019 473d 0089 5dba 584b 6b3d acc3 eabd
00000160: a075 97bc 9485 8f3d 586d ce3d a83d 8bbd
00000170: bc20 eabd 50d9 34bd 5297 fdbd 5a37 afbd
00000180: aca8 7fbd ac81 023d 8236 e4bd 4001 79bc
00000190: fa78 e0bd 4867 a23c f2ea a3bd eac9 813d
000001a0: 5a60 a2bd 40a1 663b 1208 d8bd e0e9 38bd
000001b0: 9017 a3bd ece4 2fbd d48c 6abd d098 85bc
000001c0: 507d 383d 7cd9 8c3d 0e4c bcbd 68bb fbbc
000001d0: fccd 313d 186c b23c 0419 58bd 80bf 0c3b
000001e0: 744d 1abd 7499 233d 343d b2bd dc90 d03d
000001f0: b41e f33d ac7e abbd 7406 513d 9cf2 d0bd
00000200: 545e 12bd 4264 e6bd fc85 84bd 14cd 893d
00000210: fc08 323d e431 913d 1caf 033d f4dc f2bd
00000220: 503e 88bd f049 53bd 4001 023b 0c1b 4ebd
00000230: 1c64 573d e045 bebc 0410 f53d 00c4 7fba
00000240: 9848 03bd 789d a03c 5ad0 f1bd 269b fcbd
00000250: 0c99 ba3d e0ab 92bc 5c18 a0bd a45b 34bd
00000260: 600c d13b 927f 85bd 4008 edbd ec0c 11bd
00000270: 9866 b43d 9a7b 9abd f866 673d 48e4 b23d
00000280: a4a5 cb3d 9446 ae3d 906c 20bc 76b4 953d
00000290: 1494 8dbd ca3b dfbd 24e6 d93d 0c7f 1fbd
000002a0: 50ca 7b3d 5038 263c 2857 453d b0b1 0c3c
000002b0: 74b1 99bd b09a 173d 588c 54bd 7ee0 bfbd
000002c0: 10a1 2b3d dc08 8dbd 6a5c cebd 3e1f d3bd
000002d0: 8af0 c3bd 1aa0 e1bd f01b 06bd ee33 903d
000002e0: 00db fd3a 7c95 6b3d f26e 8cbd e01c a13c
000002f0: 60be 7ebd 7861 9b3c 700d a6bc 8606 eebd
00000300: 7002 bbbd c8bc 99bc b5f9 88bd 641b 253d
00000310: f376 50bd 84ed e2bc 9a61 583d ef01 1b3d
00000320: 9a9c d23b c5ac 063d 4947 c6bd f832 453d
00000330: c8c3 a53d 569e e43b f96a abbd 575f 44bd
00000340: 59b6 6a3d 60e4 4dbb bdba 293c b4e6 4abd
00000350: a91b 00bc 0853 013d 8028 073d 248e 943d
00000360: 6ef1 b2bd fb02 f83c 0ac7 6bbd a04d 023e
00000370: 79fa c33d 8527 3dbd 09b2 083e f3ce 4b3d
00000380: 7323 96bd b42e b7bc ace6 e23d bc66 283d
00000390: 1127 82bd 4e4b c93d ae95 ba3d 250e 4fbd
000003a0: 6375 bb3d aa7e 00be acaa e4bd bb3e 853d
000003b0: d2d3 56bd 67da 6b3d e9df 893b 7c6c 3bbb
000003c0: 28a1 85bb 7162 48bd 8752 fd3d b1c8 bd3d
000003d0: 762e bc3d d3b5 033d f526 ccbd 4011 01be
000003e0: 1634 38b9 548a 293c 8b9e 8f3c baed 383d
000003f0: 3836 23bd 7c5d 3dbd cc2a 45bb 8a72 723d

layer2.bias f4 [64]
0.04835257 -0.07101609 0.0023561418 -0.01186097 0.047807682 0.04386444 -0.010630244 -0.05210365
0.11119512 -0.05232647 -0.085971326 -0.072203934 -0.010761904 -0.0025905783 0.009996276 -0.09787761
0.023782298 -0.071634665 -0.06514758 -0.07495431 -0.0074452003 0.044703696 0.11145954 0.0659275
0.09616087 0.09453479 0.072664626 -0.030963076 0.059947476 -0.057040118 -0.09740165 0.07422647
0.070181414 0.07243151 0.0739726 -0.06716439 -0.019681541 -0.060605228 0.02754938 -0.047452495
-0.10290365 -0.0454555 0.06937727 -0.11729885 0.032941017 -0.12586693 -0.033205178 0.03150504
0.05433636 -0.009378773 -0.036466748 0.008371658 -0.017844267 0.0049477634 0.021998115 -0.083837084
-0.10947755 -0.10805009 -0.11336227 0.010260843 0.090868644 -0.124246866 0.048086155 -0.02742388
00000000: 580d 463d e270 91bd 8069 1a3b 8454 42bc
00000010: fdd1 433d 33ab 333d 7a2a 2ebc a36a 55bd
00000020: 44ba e33d 4854 56bd bc11 b0bd a8df 93bd
00000030: b252 30bc b1c6 29bb 6cc7 233c 0e74 c8bd
00000040: 18d3 c23c 32b5 92bd 186c 85bd a581 99bd
00000050: def6 f3bb 391b 373d e644 e43d ff04 873d
00000060: fdef c43d 759b c13d 31d1 943d 47a6 fdbc
00000070: 7c8b 753d e6a2 69bd 847a c7bd 0c04 983d
00000080: 46bb 8f3d f956 943d f27e 973d 7c8d 89bd
00000090: 2f3b a1bc 303d 78bd 3daf e13c 8c5d 42bd
000000a0: 26bf d2bd 8c2f 3abd ac15 8e3d 613a f0bd
000000b0: 29ed 063d 43e3 00be 2702 08bd 6e0b 013d
000000c0: ce8f 5e3d 6da9 19bc 285e 15bd 4729 093c
000000d0: 242e 92bc d920 a23b 6435 b43c c7b2 abbd
000000e0: c435 e0bd 5e49 ddbd 7a2a e8bd 181d 283c
000000f0: 5719 ba3d 2475 febd fdf5 443d 0ba8 e0bc

layer3.weight f4 [1, 64]
-0.095354356 0.04367262 -0.08657804 0.031092767 0.037240826 0.0243777 -0.09990592 0.023765838
0.007610956 0.045565695 0.06052536 -0.046679597 -0.087078765 0.104667544 -0.0075440784 -0.06198498
-0.07515002 -0.012617219 0.09206439 0.09961312 -0.043153755 0.111472934 -0.06017462 0.010006655
-0.06844763 -0.10850446 -0.10941826 0.032416463 0.044059783 -0.10307501 0.0721669 0.06101759
-0.026328748 -0.12038864 -0.035709426 0.026825652 0.05803107 0.101968214 0.008368946 0.058448404
0.027822286 -0.12280379 -0.09264568 0.09224103 0.10507373 0.005726772 -0.061790626 0.016194778
-0.04809787 0.06831359 0.10871167 -0.12043905 -0.04551816 -0.0067218067 -0.046244726 0.06104865
-0.06426735 0.034733593 -0.077006824 0.075166024 -0.08914256 -0.00127621 -0.061187554 -0.12648584
00000000: 2549 c3bd 10e2 323d d44f b1bd 42b6 fe3c
00000010: d689 183d beb3 c73c 7a9b ccbd 93b0 c23c
00000020: 5465 f93b 18a3 3a3d 71e9 773d 1b33 3fbd
00000030: 5a56 b2bd f05b d63d 5134 f7bb f6e3 7dbd
00000040: 41e8 99bd 74b8 4ebc 418c bc3d f701 cc3d
00000050: fec1 30bd ec4b e43d aa79 76bd f4f2 233c
00000060: 452e 8cbd 9637 debd ae16 e0bd 20c7 043d
00000070: 0878 343d fe18 d3bd 3dcc 933d 95ed 793d
00000080: 63af d7bc 528e f6bd 0c44 12bd 78c1 db3c
00000090: fdb1 6d3d b6d4 d03d e71d 093c 9867 6f3d
000000a0: 90eb e33c 8e80 fbbd 05bd bdbd dde8 bc3d
000000b0: e530 d73d a5a7 bb3b 2b18 7dbd e9aa 843c
000000c0: 4602 45bd ffe7 8b3d 39a4 de3d c0a8 f6bd
000000d0: 4071 3abd 9a42 dcbb 1c6b 3dbd 260e 7a3d
000000e0: 9a9e 83bd d044 0e3d c1b5 9dbd a5f0 993d
000000f0: 6090 b6bd 8046 a7ba cd9f 7abd 8185 01be
