models/ppo_600000_lr=0.0003.pth (torch, 20682 bytes, 5 tensors)

layer1.weight f4 [64, 3]
000000 86 64 a0 3e 19 6f b8 3e 7c 4c 0f 3f 26 ba bf be
       0.31326693 0.3602226 0.5597608 -0.37446707
000010 43 d7 a9 3e ac f7 b5 be 0e 3f 7d 3e b5 ce 8b 3e
       0.33172044 -0.3554052 0.24731085 0.27306142
000020 14 34 07 3f ab cd a4 3d b3 63 ea 3d 8a 26 90 3e
       0.5281384 0.080470406 0.11444797 0.28154403
000030 47 7d 03 bf 92 8d 3f 3e 05 cb 02 3f a7 45 de bc
       -0.51363033 0.18706349 0.51091033 -0.027132822
000040 8a 28 4f 3e 26 9f f1 bd 37 03 b0 be 6e 11 ff be
       0.20230308 -0.11797933 -0.34377453 -0.49817985
000050 0c 07 14 3f 3c 49 45 bd 90 27 7f be 34 dd 8d 3e
       0.5782325 -0.048165545 -0.24917436 0.27707827
000060 14 26 01 bf c4 00 b8 be 02 3d c2 3d 95 e9 c5 be
       -0.5044873 -0.35938084 0.094842926 -0.3865477
000070 cc e2 0a 3f ee 59 76 3e b1 01 bd bd 63 96 bc 3e
       0.54252315 0.24057743 -0.09228838 0.36833486
000080 83 3a 9a be 13 63 0d 3f 4f a0 02 3f 4a 2c 70 be
       -0.30122766 0.552293 0.5102586 -0.23454395
000090 52 ff 8e 3e d7 3a 18 be 3d 29 90 be f2 0b 00 bf
       0.2792917 -0.14866196 -0.28156462 -0.5001823
0000a0 58 53 4f 3b 6c b2 eb 3e 98 e0 c6 be 87 0d 6f 3e
       0.003163537 0.46034563 -0.38843226 0.23345004
0000b0 34 2b 19 3d 58 dc 65 be f5 9f d8 3e 84 eb e8 be
       0.037394717 -0.22447336 0.42309538 -0.45492184
0000c0 ab cb 23 3e 4e 6c a1 3e 3f ce 05 3e c7 9b e7 3d
       0.15995662 0.31527942 0.13066958 0.11309009
0000d0 6c 88 19 bf cf d1 d4 3d e6 39 87 be 60 e9 bd be
       -0.5997379 0.1039158 -0.2641136 -0.37092113
0000e0 f7 c1 9b 3e 10 a9 df 3e f1 c9 98 be 81 3c 2b 3e
       0.3042142 0.43683672 -0.2984157 0.16722299
0000f0 d8 67 b0 3e 33 3e 2c be 98 b2 aa 3e 5e 1c be 3d
       0.34454226 -0.16820602 0.3333938 0.09282754
000100 0e 84 7b be d8 04 7a 3e 3f 39 b2 be 8f 3c b5 3e
       -0.24562094 0.2441591 -0.348093 0.35397765
000110 b1 76 d5 be 89 69 00 bf 18 0c cf be 09 c1 e7 be
       -0.41692117 -0.50161034 -0.40438914 -0.45264462
000120 3c 93 e4 3d fe 51 f8 3e 69 0a fc be 38 12 02 3d
       0.11160895 0.48500055 -0.49226692 0.031755656
000130 32 69 d3 3e fc 7d e4 be 89 1e de 3e e8 bd 4f be
       0.41291195 -0.44627368 0.4338267 -0.20287287
000140 75 07 0a 3f c4 a8 23 bd ad b6 dc be 54 8f ff be
       0.5391763 -0.03995587 -0.4310812 -0.49914038
000150 dd 44 3e 3e 8f ab 43 bc 6e 43 2e 3d d8 a9 c6 3e
       0.18580957 -0.011942758 0.042544775 0.38801455
000160 85 15 1f be bf 6d c9 be a2 ff 9f bd bf c2 82 bd
       -0.15535553 -0.39341542 -0.0781243 -0.06384801
000170 1f ac f4 be 6d bd ba 3e 03 5d a4 be 07 47 fe be
       -0.47787568 0.36472645 -0.32102212 -0.49663565
000180 fa 38 8e be f5 52 03 bf 7e ef cd 3c 17 1b 89 be
       -0.27777845 -0.5129846 0.025138613 -0.2677848
000190 f0 cb 0a bf 0e 10 ec be 16 82 97 3e eb aa 63 3e
       -0.54217434 -0.46106 0.29591435 0.22233169
0001a0 cf 57 03 3e ec cc 6c 3e bc 05 86 be f9 55 81 3e
       0.12826465 0.23125046 -0.2617625 0.25260904
0001b0 20 80 40 3e 35 ea fd 3d 66 04 91 be 05 f5 28 3e
       0.18798876 0.12398187 -0.28323668 0.16499718
0001c0 7f 54 d4 3e 1b 0a 95 3e 10 b7 49 be fc 9c 5b be
       0.41470715 0.29109272 -0.19698739 -0.21446604
0001d0 f6 fb fe 3e 01 9f 9a be bd b1 95 be ef 96 f4 be
       0.49801606 -0.30199435 -0.29237166 -0.47771403
0001e0 e4 c1 cf 3e 24 bb bc be aa 7a 95 be 87 34 e8 be
       0.40577614 -0.36861527 -0.29195148 -0.45352575
0001f0 f8 d3 45 be eb da cf 3e a0 94 e3 3e 1e ef 16 be
       -0.19319141 0.4059671 0.4444933 -0.14739653
000200 27 c7 ce 3e 7f 68 6f 3e 78 e3 ac be 75 81 22 3e
       0.40386316 0.23379706 -0.33767295 0.15869696
000210 74 e4 bb be 33 b0 fd 3e ad 7d 66 be d5 ad af bd
       -0.36697733 0.49548492 -0.22508879 -0.08578078
000220 47 b1 8a 3e 27 ad cc 3d 3b 9f 0c 3d 5c a4 4f be
       0.27088377 0.09993964 0.03433154 -0.20277542
000230 e5 f6 0c bf e0 74 da be df a0 e6 3e e0 91 9b be
       -0.5506423 -0.42667294 0.4504461 -0.3038473
000240 b0 3a 58 be 15 62 03 bf 4a f6 cd 3e ed dd c7 3e
       -0.21116138 -0.51321536 0.40226966 0.39036503
000250 77 67 32 3d 46 96 0c 3f 0d ad 99 3c 10 d1 ce 3e
       0.043555703 0.549168 0.018759275 0.40393877
000260 e9 1b 59 3e a5 85 1c bf b9 2d a7 3e 07 94 4f be
       0.21202053 -0.61141425 0.3265207 -0.20271312
000270 ec 6c e0 be bc 79 1a 3f 46 5a cc 3e b7 03 a6 3e
       -0.438331 0.60342 0.39912623 0.3242471
000280 24 26 96 be 4c c1 45 be 9e 5d b3 3d 08 da 8d 3d
       -0.29325974 -0.19312018 0.087580904 0.06926352
000290 2c b7 9f 3e 0c 05 02 3e 71 89 dc be 54 4c 05 3f
       0.31194437 0.12697238 -0.4307361 0.5206959
0002a0 75 bd 18 3f 9a 5e 10 3f a7 cb b2 be 3c 2c 94 3e
       0.5966409 0.5639435 -0.34921 0.28939998
0002b0 89 02 8c be 4e 5e 8f be 8b 50 02 3f 2b 1a 84 3e
       -0.27345684 -0.28001636 0.5090415 0.25801215
0002c0 fd 58 ab be c9 9f af 3e c7 58 25 bd f8 90 c9 3e
       -0.3346633 0.34301594 -0.040367868 0.39368415
0002d0 15 70 84 be ca 77 f6 3e 82 83 8e be 8e d3 13 3f
       -0.25866762 0.48138267 -0.27834707 0.5774468
0002e0 5c 23 a0 bd 0f 93 88 3d 2c 97 40 be 1e 37 11 3f
       -0.07819244 0.06668674 -0.18807667 0.5672473
0002f0 d0 c7 b3 be c3 1e c9 3c a9 34 6e 3d 74 b7 b1 3d
       -0.35113382 0.024550801 0.05815569 0.08677569

layer1.bias f4 [64]
000000 7f d2 e9 be 0a 9e 99 be 61 6a 0d bf 47 7b 03 3f
       -0.45668408 -0.30003387 -0.55240446 0.5135998
000010 f7 48 e5 3d 81 ef 5e 3e 3a a9 0a 3f 26 28 c6 be
       0.111955576 0.21771051 0.5416447 -0.38702506
000020 a3 30 56 be 13 b2 02 3f 8b cd b5 bd cb 63 02 be
       -0.20916991 0.5105297 -0.08877095 -0.1273338
000030 05 5b fd be 4a a5 bf be 93 80 8c 3e 20 83 50 be
       -0.49483505 -0.37430793 0.27441844 -0.2036252
000040 0e b6 87 be 33 04 11 3f 29 61 84 3e de a3 de 3e
       -0.26506084 0.5664703 0.25855377 0.43484396
000050 eb 99 0c 3e 4e ef 02 bf 99 2d b0 bc b6 d7 01 3f
       0.1373059 -0.511464 -0.021506118 0.50719774
000060 1f 54 0d 3f c2 de d2 3e 4e 1c 0c bf 6b 88 c0 3e
       0.55206484 0.41185576 -0.5473069 0.3760408
000070 63 50 9d 3e 71 0b 3e 3e dc 30 bc 3e 0a 12 af be
       0.30725393 0.18559052 0.36756027 -0.3419345
000080 f0 83 d3 be 54 e2 b3 3d 19 86 11 3f 93 bd 0f be
       -0.41311598 0.08783403 0.5684524 -0.1403716
000090 e5 af c0 be ee 08 ed 3e 37 7c e2 be 2b a2 a2 3d
       -0.37634197 0.46295875 -0.44235393 0.07941087
0000a0 a4 f0 aa be 16 fc 0e bf 88 a8 20 be 51 c1 fc bd
       -0.3338672 -0.558534 -0.1568929 -0.1234156
0000b0 8c 5b 09 3f 85 00 fb be 84 c2 0a bf 1d b2 3f be
       0.53655314 -0.49023834 -0.5420306 -0.18720289
0000c0 51 70 96 3e 75 dc 27 3e 99 4c bd 3e d9 30 49 3d
       0.29382566 0.16392691 0.36972502 0.04911885
0000d0 b1 92 c3 be 8a f1 10 3f 46 25 0e 3f 7c eb e7 be
       -0.38197854 0.5661856 0.55525625 -0.45296848
0000e0 fc 93 65 be 9d b6 ea be 03 21 13 bf 1d ac 8a be
       -0.22419733 -0.45842448 -0.57472247 -0.27084437
0000f0 8b 11 b2 be 5c 82 04 3f 8b 57 f2 3e a5 8a 7e 3e
       -0.3477901 0.5176141 0.47332415 0.24857576

layer2.weight f4 [64, 64]
000000 fe 44 af 3d fa cb f7 bc e5 22 c3 bd 5c 5d c0 bd
       0.08558081 -0.03024863 -0.0952814 -0.09392807
000010 3d ac 4b bd 4a 37 75 bd 16 39 d2 b9 3d 94 c8 3d
       -0.049724806 -0.05986718 -0.00040096854 0.09793899
000020 1f 3d 1e 3c 8a 48 88 bb a3 ca 3d bc 18 93 03 3e
       0.009658127 -0.004159038 -0.011583957 0.1284908
000030 19 aa f8 3d 73 7b 39 3d 9c 82 ac 3b da 30 8c bd
       0.121418186 0.045283746 0.0052645933 -0.06845255
000040 89 4c d3 3d d8 42 5e 3d fc 6a 2b bd df 7c 4c 3b
       0.10317332 0.054262966 -0.041850075 0.0031202359
000050 21 19 6b bb 68 5c af bd 5b 7d 43 3d 38 4e 86 bd
       -0.0035873132 -0.08562547 0.04772697 -0.06557888
000060 95 4a 9d bc 0a 1d b3 bd e2 71 dc bd 7d 00 d6 3d
       -0.019200603 -0.08745773 -0.10763909 0.10449312
000070 0b f0 4b 3c 20 fb f2 3d a9 e2 38 bd 3a 7d 90 bd
       0.012447367 0.118643045 -0.045138035 -0.07055135
000080 e3 84 2a bd fd 16 b2 bd 91 a5 6f bd b7 41 9e 3d
       -0.041630637 -0.08695791 -0.058507506 0.07727378
000090 18 71 01 3d 15 ad 13 bd 81 be 74 3d e7 86 a7 bc
       0.031601995 -0.036053736 0.05975199 -0.020450069
0000a0 71 81 c7 3d 0a 22 f7 3d 24 81 8d 3d 29 be c8 3d
       0.09741486 0.12067039 0.06909397 0.09801895
0000b0 51 54 a4 bd 37 db 48 bd 07 1d 06 bc d4 81 1e bd
       -0.080238946 -0.049037185 -0.008185632 -0.038698032
0000c0 34 f6 a6 3d ad 68 52 bd e5 88 e0 3c 63 1f ce bd
       0.08152428 -0.051369358 0.027409026 -0.1006458
0000d0 c7 26 2d 3d 74 c0 bc 3d 40 47 43 3c 7a 75 02 bd
       0.04227331 0.09216395 0.011918843 -0.031850316
0000e0 ec c6 4c bd 4b dc b8 3d 35 3f 18 3e db 95 b8 3d
       -0.049994394 0.090263925 0.14867862 0.09012958
0000f0 74 67 ac 3d b6 88 06 be 7d 97 a3 3d 12 6f 16 3d
       0.084181696 -0.13138089 0.079878785 0.03672702
000100 54 08 66 bd 5a 81 a7 bd 1a cc d7 bd b0 a0 fa 3c
       -0.056160286 -0.08178969 -0.10536976 0.0305942
000110 7a 9c 83 3d d2 36 bb 3d 58 57 c4 bc 56 09 f1 bd
       0.0642633 0.091413155 -0.02396743 -0.11769359
000120 2a ea ec 3d 2c 27 10 bd d0 43 46 3c aa 6e b6 3d
       0.11568101 -0.035193607 0.012101129 0.08907826
000130 e4 fd 02 bd c0 13 8a bb c0 b6 36 bd f6 38 89 bd
       -0.03198041 -0.00421378 -0.044607878 -0.067003176
000140 66 e2 97 3d 7a 48 ec bd 98 35 a3 bc e8 62 ec 3d
       0.07416229 -0.11537261 -0.019923016 0.11542302
000150 d0 19 47 3d 00 89 5d ba 58 4b 6b 3d ac c3 ea bd
       0.0486086 -0.00084508955 0.0574449 -0.11463103
000160 a0 75 97 bc 94 85 8f 3d 58 6d ce 3d a8 3d 8b bd
       -0.018488705 0.070079 0.100794494 -0.06798869
000170 bc 20 ea bd 50 d9 34 bd 52 97 fd bd 5a 37 af bd
       -0.11432025 -0.044152558 -0.12382378 -0.08555479
000180 ac a8 7f bd ac 81 02 3d 82 36 e4 bd 40 01 79 bc
       -0.062416717 0.031861946 -0.11143209 -0.015198052
000190 fa 78 e0 bd 48 67 a2 3c f2 ea a3 bd ea c9 81 3d
       -0.109605744 0.019824639 -0.08003797 0.0633734
0001a0 5a 60 a2 bd 40 a1 66 3b 12 08 d8 bd e0 e9 38 bd
       -0.07928534 0.0035191327 -0.10548414 -0.045144916
0001b0 90 17 a3 bd ec e4 2f bd d4 8c 6a bd d0 98 85 bc
       -0.079634786 -0.042942926 -0.05726321 -0.016308218
0001c0 50 7d 38 3d 7c d9 8c 3d 0e 4c bc bd 68 bb fb bc
       0.045041382 0.06877419 -0.09194194 -0.03072901
0001d0 fc cd 31 3d 18 6c b2 3c 04 19 58 bd 80 bf 0c 3b
       0.043409333 0.021780059 -0.05275823 0.0021476448
0001e0 74 4d 1a bd 74 99 23 3d 34 3d b2 bd dc 90 d0 3d
       -0.03767152 0.039941266 -0.0870308 0.1018388
0001f0 b4 1e f3 3d ac 7e ab bd 74 06 51 3d 9c f2 d0 bd
       0.118710905 -0.0837377 0.051031545 -0.10202524
000200 54 5e 12 bd 42 64 e6 bd fc 85 84 bd 14 cd 89 3d
       -0.03573449 -0.112495914 -0.06470868 0.06728569
000210 fc 08 32 3d e4 31 91 3d 1c af 03 3d f4 dc f2 bd
       0.0434656 0.07089594 0.03214942 -0.1185855
000220 50 3e 88 bd f0 49 53 bd 40 01 02 3b 0c 1b 4e bd
       -0.0665251 -0.051584184 0.001983717 -0.050318763
000230 1c 64 57 3d e0 45 be bc 04 10 f5 3d 00 c4 7f ba
       0.052585706 -0.023226678 0.11965945 -0.00097566843
000240 98 48 03 bd 78 9d a0 3c 5a d0 f1 bd 26 9b fc bd
       -0.032051653 0.019606337 -0.11807318 -0.1233428
000250 0c 99 ba 3d e0 ab 92 bc 5c 18 a0 bd a4 5b 34 bd
       0.091112226 -0.017904222 -0.07817146 -0.044032708
000260 60 0c d1 3b 92 7f 85 bd 40 08 ed bd ec 0c 11 bd
       0.006379649 -0.06518473 -0.11573839 -0.035412714
000270 98 66 b4 3d 9a 7b 9a bd f8 66 67 3d 48 e4 b2 3d
       0.08808631 -0.075431064 0.056494683 0.087349474
000280 a4 a5 cb 3d 94 46 ae 3d 90 6c 20 bc 76 b4 95 3d
       0.09943703 0.085095555 -0.009791508 0.07309811
000290 14 94 8d bd ca 3b df bd 24 e6 d9 3d 0c 7f 1f bd
       -0.06913009 -0.10900076 0.10639599 -0.03893952
0002a0 50 ca 7b 3d 50 38 26 3c 28 57 45 3d b0 b1 0c 3c
       0.061472237 0.010145262 0.04817882 0.008587286
0002b0 74 b1 99 bd b0 9a 17 3d 58 8c 54 bd 7e e0 bf bd
       -0.075045496 0.037012756 -0.051891655 -0.0936899
0002c0 10 a1 2b 3d dc 08 8d bd 6a 5c ce bd 3e 1f d3 bd
       0.041901648 -0.068864554 -0.1007622 -0.10308693
0002d0 8a f0 c3 bd 1a a0 e1 bd f0 1b 06 bd ee 33 90 3d
       -0.095673636 -0.11016865 -0.032741487 0.07041155
0002e0 00 db fd 3a 7c 95 6b 3d f2 6e 8c bd e0 1c a1 3c
       0.0019367635 0.057515606 -0.06857099 0.019667089
0002f0 60 be 7e bd 78 61 9b 3c 70 0d a6 bc 86 06 ee bd
       -0.062193274 0.018967375 -0.02027008 -0.11622338
000300 2a f8 af bd e9 f4 53 bd 44 9d 7c bd 10 b1 0f 3d
       -0.085922554 -0.051747236 -0.061673418 0.03508097
000310 70 b5 58 bd a6 f9 42 bd 53 10 59 3d 22 f9 f7 3c
       -0.052907407 -0.047601365 0.052994084 0.030270163
000320 6a dc 49 bc 22 fb 88 3c 33 df f0 bd 8b e1 53 3d
       -0.012320617 0.016721312 -0.11761322 0.051728766
000330 7c ae 8e 3d c9 39 1e 3c 96 39 fc bd 15 9a 95 bd
       0.06966874 0.009657332 -0.12315671 -0.073047794
000340 c1 09 79 3d 29 9c 84 3c 59 5d 21 3c 54 ee c0 bc
       0.060800318 0.016187744 0.009848916 -0.023551144
000350 f9 36 ec bb f9 da f2 3c 02 28 e7 3b 6b af 4f 3d
       -0.0072087017 0.02964543 0.00705433 0.0507044
000360 5e a7 d4 bd 31 66 59 3c 0f ca 5c bd 55 3f eb 3d
       -0.10383485 0.013268993 -0.053903636 0.11486689
000370 a3 a5 f8 3d 79 9d 50 bd 65 77 f1 3d a5 a6 30 3d
       0.12140968 -0.050931428 0.11790351 0.043127675
000380 fd f6 80 bd b3 65 2a bd 46 47 f8 3d 5b 6c 2c 3d
       -0.06297109 -0.041600894 0.12122969 0.042095523
000390 61 70 98 bd 22 e5 bd 3d 4f 3c b5 3d 12 0c 90 bd
       -0.074433096 0.09272219 0.088493936 -0.07033552
0003a0 af 98 b9 3d 1c de 06 be 40 a1 e3 bd b6 23 93 3d
       0.09062325 -0.13170666 -0.1111474 0.07184546
0003b0 a0 e6 a8 bd e6 37 67 3d 62 62 3a bc 46 d5 1a bd
       -0.08247113 0.056449793 -0.011375995 -0.03780105
0003c0 80 6e ac ba a8 ee 4c bd cd 5b ec 3d dd 93 47 3d
       -0.001315549 -0.050032288 0.11540947 0.048724998
0003d0 34 ff c3 3d e1 f0 0c 3d f2 c5 d5 bd 19 f6 05 be
       0.095701605 0.034409408 -0.10438146 -0.1308216
0003e0 af 50 bd ba 41 17 3e 3b 38 9f 7d 3c a2 11 49 3d
       -0.0014443601 0.002900556 0.015479855 0.04908908
0003f0 30 97 8d bd 3e 7c ff bb c4 de d1 bc 03 53 51 3d
       -0.06913602 -0.0077967932 -0.025618918 0.051104557

layer2.bias f4 [64]
000000 5a 12 fc 3c e2 70 91 bd 80 69 1a 3b bf b5 a1 bc
       0.03077047 -0.07101609 0.0023561418 -0.019739984
000010 40 af 39 3d 34 78 37 3d f8 f5 28 bc 65 e7 3a bd
       0.045333147 0.04479237 -0.01031255 -0.04563083
000020 d3 de f6 3d 48 54 56 bd 3d 08 a4 bd fb 78 98 bd
       0.12054219 -0.05232647 -0.08009384 -0.0744495
000030 3c 37 38 bb ef 27 53 3c 28 7d 22 3c 0e 74 c8 bd
       -0.0028109094 0.012887939 0.009917535 -0.09787761
000040 a0 69 ab 3c 63 ec 8d bd 00 94 8c bd 7e d8 a1 bd
       0.02092439 -0.06929853 -0.06864166 -0.07902621
000050 75 db 1b bb cb 26 61 3d b5 ae df 3d 47 b6 77 3d
       -0.002378193 0.054968636 0.109219946 0.060476568
000060 ba 75 de 3d 9f 26 b1 3d b2 ad 7d 3d 4a 7e 0e bd
       0.10862298 0.086499445 0.061933227 -0.034788407
000070 27 55 79 3d 54 92 8d bd 84 7a c7 bd d9 c4 94 3d
       0.060872223 -0.069126755 -0.09740165 0.07264108
000080 e4 46 86 3d 2f 31 8f 3d 05 cc 92 3d 7c 8d 89 bd
       0.0655649 0.06991803 0.0716782 -0.06716439
000090 2f 3b a1 bc 0a 0d 5e bd b3 1c 04 3d 8c 5d 42 bd
       -0.019681541 -0.054211654 0.032253932 -0.047452495
0000a0 02 4b e1 bd 8c 2f 3a bd ec 7d 89 3d be 99 e2 bd
       -0.11000635 -0.0454555 0.06713471 -0.1106448
0000b0 c6 c7 08 3d 43 e3 00 be f6 13 12 bd 21 e7 e6 3c
       0.033393644 -0.12586693 -0.035663567 0.028186383
0000c0 3e 06 55 3d 47 4c 0c bc 08 48 1e bd 47 29 09 3c
       0.052007906 -0.008563108 -0.038642913 0.008371658
0000d0 cf 47 6e 3a d9 20 a2 3b 64 35 b4 3c 40 5c a5 bd
       0.000908968 0.0049477634 0.021998115 -0.08074236
0000e0 57 12 e6 bd 5e 49 dd bd ed 33 01 be 2e f3 a6 ba
       -0.11233967 -0.10805009 -0.12617464 -0.0012737268
0000f0 f1 55 a7 3d 24 75 fe bd 5a 38 38 3d d7 b8 20 bd
       0.08170689 -0.124246866 0.044975616 -0.039238777

layer3.weight f4 [1, 64]
000000 10 8e a4 bd 10 e2 32 3d d4 4f b1 bd 96 d7 04 3d
       -0.08034909 0.04367262 -0.08657804 0.03243216
000010 3b 36 16 3d 66 34 9e 3c 18 0b d0 bd 6f 1f e9 3c
       0.036672812 0.019312095 -0.10158366 0.028457372
000020 4a c5 d9 3c 18 a3 3a 3d a7 95 77 3d a7 5b 3e bd
       0.026583333 0.045565695 0.060445454 -0.046474125
000030 8b b4 a1 bd 56 35 ed 3d 37 cf 32 bc f6 e3 7d bd
       -0.07895764 0.11582439 -0.010913662 -0.06198498
000040 42 a4 b3 bd ff f6 4a bc ae 5a a9 3d be 13 d2 3d
       -0.08771564 -0.01238799 0.08269249 0.10257672
000050 df 00 43 bd ab ca f3 3d 11 4c 41 bd 4a 8e 40 3b
       -0.047608253 0.1190389 -0.047191683 0.0029381686
000060 77 73 97 bd 16 1a d9 bd 6f fb e4 bd 25 73 9e 3c
       -0.0739507 -0.106006786 -0.1118077 0.019342015
000070 81 70 24 3d 95 9e b9 bd 3d cc 93 3d 9c 5c 5c 3d
       0.040146355 -0.0906345 0.0721669 0.053799257
000080 30 e1 be bc c8 46 f6 bd 8f 33 26 bd 78 c1 db 3c
       -0.023300737 -0.12025219 -0.040576514 0.026825652
000090 fd b1 6d 3d ca c5 ca 3d d0 66 29 3c 98 67 6f 3d
       0.05803107 0.099010065 0.010339454 0.058448404
0000a0 64 44 e7 3c 8e 80 fb bd 65 57 af bd fa a4 b8 3d
       0.028230853 -0.12280379 -0.08561591 0.09015842
0000b0 77 ba d5 3d a5 a7 bb 3b f4 79 87 bd 72 0c 72 3c
       0.10435956 0.005726772 -0.066150576 0.014773475
0000c0 cc 12 41 bd b5 af 28 3d 70 a9 d3 3d c0 a8 f6 bd
       -0.047137067 0.041183192 0.10335052 -0.12043905
0000d0 3d 73 88 bd 9a 42 dc bb 1c 6b 3d bd 4d 18 56 3d
       -0.06662605 -0.0067218067 -0.046244726 0.05226927
0000e0 de 69 8e bd d0 44 0e 3d c9 28 97 bd 44 b9 70 3d
       -0.06953786 0.034733593 -0.07380826 0.058770433
0000f0 42 f1 90 bd 80 46 a7 ba 08 5f 81 bd f8 40 f3 bd
       -0.07077266 -0.00127621 -0.06316954 -0.11877626
